best_crowd_counting.pth (torch, 583581 bytes, 31 tensors)

column1.0.weight f4 [8, 3, 9, 9]
000000 af eb 24 bd 42 9a 59 bd 04 af e1 bb 53 7d 67 bd
       -0.040263828 -0.053125627 -0.0068873186 -0.056516003
000010 f6 d8 59 bd 07 ae d7 bc 43 e5 02 bc 6d 53 70 bd
       -0.053185426 -0.0263281 -0.007989231 -0.05867331
000020 86 ce 80 bd 8a f6 42 bc 8b 7d 57 3c 18 d1 88 bd
       -0.06289391 -0.0118996 0.01315249 -0.066805065
000030 43 74 a7 3c 35 5d 33 3c 3e af 38 3d b6 d4 75 bd
       0.02044118 0.010947515 0.045089 -0.06001731
000040 cb 4b 6c 3d cc f4 c8 b9 c4 3a 0c 3d 20 8f 87 bd
       0.05768947 -0.0003832936 0.03423573 -0.06619096
000050 a6 ad 43 3d 79 27 bc bb 97 fb 4f 3d 78 bb 5c bd
       0.047773026 -0.00574201 0.050777044 -0.05388972
000060 bb a0 27 bd 5d 64 16 3c de 04 db 38 56 81 c4 bc
       -0.04092477 0.009179202 0.0001044364 -0.023987453
000070 9d f4 01 bd a8 b5 31 bd 72 e8 c6 3b ac f9 28 3c
       -0.031727422 -0.04338613 0.00607019 0.010313433
000080 11 18 45 bd df d8 91 3a c1 93 2e bd 8a 4c 61 3c
       -0.048118655 0.0011127255 -0.042621378 0.0137511585
000090 21 44 12 bd bd 34 65 bd 30 ac 8c 3c ed c2 6a bd
       -0.035709504 -0.0559585 0.01717195 -0.057314802
0000a0 29 5b 28 bc 9f 29 20 bc 29 89 92 3c 1b cf 52 3d
       -0.0102756405 -0.009775548 0.017887669 0.051467042
0000b0 0f 11 36 bd d0 a7 92 3c 03 6a e0 bc 19 05 82 bd
       -0.044449862 0.017902285 -0.0273943 -0.063486286
0000c0 dd ef 01 bd b9 e0 38 3d 2d 55 34 3d 8e 06 99 3c
       -0.031722892 0.045136187 0.044026542 0.018679883
0000d0 75 b9 21 3d f4 22 07 bd 5c 2c 65 3d 33 b5 4a bb
       0.039483506 -0.03299232 0.055950508 -0.0030930757
0000e0 ee f6 ba 3c 49 f9 d1 3c c4 b7 74 bb 6b 00 37 bd
       0.022822823 0.025631564 -0.0037340978 -0.044678133
0000f0 f3 d9 13 bd c9 11 9c bc 9f 4b 9d bc 93 1e 86 ba
       -0.036096524 -0.01905145 -0.019201098 -0.00102325
000100 ac f4 ca 3c 12 90 85 bd ed 86 35 bc 54 e6 62 bd
       0.024774872 -0.0652162 -0.011079532 -0.05539544
000110 8b 0f 58 3d 7c 99 a0 bc fd d8 de 3c c7 98 39 3d
       0.052749198 -0.019604437 0.027203077 0.045311715
000120 f7 a5 59 3c 4b be 7a 3c 63 29 20 3d 26 fc e8 bc
       0.013284198 0.015304158 0.03910197 -0.028440546
000130 ae a4 4a bd ca fc 80 bd fc a8 48 3d 77 02 c7 3c
       -0.049473457 -0.06298216 0.04898928 0.024293168
000140 7d 58 2e 3d 0e 23 88 3b 66 ca fb 3c 83 56 c3 3c
       0.042564858 0.0041545695 0.03073616 0.023844963
000150 4b 77 b1 bc 23 e7 92 bc 28 70 18 3d 9e 60 e0 bb
       -0.021663329 -0.01793248 0.037216336 -0.006847455
000160 c3 7f 14 bc 14 ff 45 3d 32 44 cc bb e7 10 67 bb
       -0.009063664 0.048338965 -0.0062337155 -0.0035257877
000170 43 8c 76 bd 3b b7 c3 bc 7c fc 6b 3d a1 fc b0 3c
       -0.060192358 -0.023891082 0.057613835 0.021604838
000180 3c 94 03 3d 4e 55 61 bd 85 ea 03 3d 17 7e 74 bd
       0.03212379 -0.055012994 0.032206077 -0.05969056
000190 36 e9 08 3d bc 08 36 bd 35 40 4f 3d 29 81 7c b7
       0.033425532 -0.044441923 0.050598342 -1.5050443e-05
0001a0 40 4b 81 3c a4 97 90 bc 0b ad a5 3c 7c ac b6 3c
       0.015782952 -0.017650433 0.020224115 0.022299044
0001b0 aa 36 3a 3d db 92 b9 3c 58 e4 91 3c af dc 16 bd
       0.045462288 0.022653034 0.017809078 -0.036831554
0001c0 a8 ac e7 3c 55 94 63 bc d7 f3 85 bb 2e 3a 44 3d
       0.028280571 -0.013890346 -0.004087906 0.047907047
0001d0 4f 33 dd 3c fd 52 2c 3d 23 16 23 3d 7e 8c 73 bc
       0.027002005 0.04207133 0.039816033 -0.014865039
0001e0 06 8a cd bc 46 3b 02 bc ab 2d 70 bd 48 b0 10 3d
       -0.025090229 -0.007948702 -0.058637302 0.035324365
0001f0 74 b1 b0 bc 34 2c 5f 3d 3b 42 26 bd 9a 05 01 bc
       -0.021568991 0.054485515 -0.040590506 -0.007874871
000200 1e e4 00 bd 35 bb 34 3d 27 41 b8 3b 40 35 04 3d
       -0.03146755 0.044123847 0.005623001 0.032277346
000210 a7 eb 1d 3d 0e 26 63 bc 71 3e 7b bd 46 cb 6a bd
       0.038554814 -0.013864053 -0.061338846 -0.057322763
000220 7a de 51 bd 55 f0 39 3d ed 95 2e bd 3e 5b 48 3d
       -0.05123756 0.045395214 -0.04262345 0.04891514
000230 ae 2a 64 bc 39 04 45 bb e4 b1 df 3c 5d 92 2e bd
       -0.013926191 -0.0030062331 0.027306505 -0.04262005
000240 4d 2c 12 bc cb d8 46 bd 58 f7 0a bd cd d1 01 bd
       -0.008921695 -0.048546594 -0.03392729 -0.031694222
000250 85 a2 89 bd 5e 83 d1 3c fb 51 0e 3d 52 76 20 bd
       -0.06720451 0.025575336 0.03474615 -0.03917534
000260 5e 8e 77 bc 16 09 bd bc ca 7f 10 3d 4d 4c 0e 3d
       -0.015109627 -0.023075622 0.03527812 0.034740735
000270 cf 7f 56 3d be d4 3f bd 57 77 25 3d 56 71 64 bc
       0.05236798 -0.046833746 0.040397014 -0.013943037
000280 a2 8c 31 bd 8b df 40 3d 02 ba aa bc d6 d9 0e bd
       -0.04334701 0.047088187 -0.020840649 -0.034875713
000290 e2 93 2e bc 77 17 33 bc bd a2 65 3d 77 ab ad bc
       -0.010655375 -0.010930887 0.056063402 -0.021199925
0002a0 a6 eb 37 3d fc 3d 9a bc d8 7b 08 3d 06 36 42 bd
       0.044902466 -0.018828385 0.03332123 -0.047414802
0002b0 16 cf 17 3a 4b ad 61 3d eb 5b 0a bd 60 d7 7e bd
       0.0005791051 0.055096906 -0.033779066 -0.062217116
0002c0 f0 72 0b bc 46 39 3b bd 05 10 c8 3b 6a cc 10 bc
       -0.00851129 -0.045708917 0.0061054253 -0.008837799
0002d0 f2 58 27 ba f8 a9 8c 3c 0c 9a 53 3c 22 8b 8b 3c
       -0.00063837983 0.017170891 0.012915146 0.017034117
0002e0 e7 e5 43 bc 57 d2 36 bd 75 d6 6b bd a2 ae 14 bd
       -0.011956668 -0.04463419 -0.05757757 -0.036299355
0002f0 01 f6 ca bb b1 08 44 3d 37 80 24 3d 8c 89 4c bc
       -0.0061938767 0.04785985 0.040161338 -0.012483966
000300 96 68 a7 3b e6 e2 fd 3c 16 a3 fa 3c 04 cf 17 bd
       0.005108903 0.030991983 0.030595344 -0.03706266
000310 66 28 f5 3b b8 65 62 3b e7 63 5f 3d 00 9b 49 3b
       0.0074816225 0.0034545492 0.054538634 0.0030762553
000320 6a e2 00 bd 72 b1 83 bc 2f 5f d2 bc 78 7e d6 bb
       -0.031465925 -0.016075823 -0.025680153 -0.006545838
000330 59 72 08 3d 1e cb 62 bd d7 35 d1 bc 3e d7 39 bd
       0.033312175 -0.05536949 -0.025538368 -0.045371287
000340 1b 13 fd bb da 87 c9 bc 74 72 06 3c 02 4a cb bc
       -0.007723225 -0.024600912 0.008205999 -0.024815563
000350 2d 2e 56 3d 86 1c 1e bd 2a 20 77 bd ca 98 7b bd
       0.05229013 -0.03860142 -0.06033341 -0.061425008
000360 77 85 88 bd 5e 86 9e bc f0 b4 d3 3c af ef 26 bd
       -0.066660814 -0.01935118 0.025843114 -0.040755924
000370 6c 66 2f bc 08 8a 6d bd cc 00 bb 3a 2a 60 70 bd
       -0.010705572 -0.057992965 0.0014267205 -0.05868546
000380 be 11 07 bd 20 c4 20 bd f0 26 d7 bc 03 4e 18 3d
       -0.032975905 -0.03924954 -0.026263684 0.037183773
000390 9e 04 88 bd f1 d6 68 3d 90 af 53 3c 82 23 29 bd
       -0.06641506 0.05684561 0.012920275 -0.04129363
0003a0 82 18 0f 3d 8b 71 d9 bc e4 d9 89 bd 05 df 53 3d
       0.03493548 -0.0265434 -0.067310125 0.05172636
0003b0 02 6a 80 bd 2e b5 5b 3c 99 aa 32 3c 1a 9e 4a bc
       -0.062702194 0.013409896 0.010904931 -0.012366796
0003c0 cc 48 38 3b ae 7d 83 bd 97 31 03 bd 1b a8 58 bd
       0.0028119562 -0.06420456 -0.032029714 -0.052894693
0003d0 3c 9e 38 bd 2c b5 fa bb f9 59 d5 3c 90 49 88 bd
       -0.04507278 -0.007650992 0.026043879 -0.06654656
0003e0 07 98 83 bc 30 ea 56 bd 89 b5 65 3d a2 6d 60 3d
       -0.016063703 -0.052469432 0.05608133 0.054792054
0003f0 dd 64 66 3d b0 a6 02 bc 60 37 18 3d da 10 59 3c
       0.056248534 -0.007974312 0.037162185 0.013248647

column1.0.bias f4 [8]
000000 03 46 6d bd ad 3c af bc 8b 39 82 bd 8f 44 81 bc
       -0.057928097 -0.021391237 -0.06358632 -0.015779762
000010 da 88 35 bd 02 5b 6a bd 5e 7b 6c bd a7 fb 42 bb
       -0.044319965 -0.057215698 -0.05773484 -0.0029752047

column1.3.weight f4 [16, 8, 7, 7]
000000 c3 99 fb b9 36 37 2c 3d 35 d8 58 bc 7a 0f 1c bd
       -0.00047989012 0.04204484 -0.0132351415 -0.038100697
000010 22 4a 21 3d 4e ea c4 3c 1a 12 49 bd b1 89 2f 3d
       0.03937734 0.024037506 -0.04908953 0.042855922
000020 6d a7 3d bd 16 0a 15 3d 41 ea 4c 3a 52 53 0a 3d
       -0.046302248 0.03638657 0.0007816889 0.033770867
000030 e8 dd 77 3b 87 da 1a 3d 65 6f da 3c 42 fc ef bc
       0.0037821475 0.03780606 0.026664445 -0.02929509
000040 d1 b5 1d 3d ab aa 1e bb 6d bd 0c bd a0 d9 52 bd
       0.03850347 -0.0024210613 -0.034360338 -0.051477075
000050 58 21 13 3d 6e a3 25 bd ac 46 07 bd a2 8b 27 3d
       0.03592047 -0.04043906 -0.033026382 0.04090465
000060 83 f7 75 bc 6a 91 c7 3b a1 42 cd 3b fe d5 10 3d
       -0.015012625 0.0060903328 0.0062640463 0.03536033
000070 47 77 44 3c 88 ca 43 bd 06 04 23 3d f0 69 33 3c
       0.011991329 -0.04780057 0.03979876 0.01095055
000080 01 79 29 3d 14 d0 22 bd 48 fa a2 bc 20 70 21 3d
       0.041375164 -0.03974922 -0.019894734 0.03941357
000090 a0 f3 0f 3c d5 41 b1 bc 14 3f 5f 3c 25 f3 f4 bb
       0.008786112 -0.021637836 0.013625879 -0.007475274
0000a0 53 bc 12 bd c0 2f 91 bc dd ef e0 3b aa ac 15 ba
       -0.03582413 -0.017722964 0.0068645314 -0.0005709628
0000b0 54 99 c8 bb 8f bd ca ba 6e 16 bc bc 8d b0 a0 3c
       -0.0061217938 -0.001546787 -0.022959914 0.019615436
0000c0 8c 07 0a bd b0 c8 81 bb 4b 74 fa bc 45 26 eb 3c
       -0.033698604 -0.0039606914 -0.030573031 0.028704772
0000d0 fb 19 c8 bc b9 14 20 bd 04 30 dc 3c c3 20 14 bd
       -0.024426451 -0.039082263 0.026878364 -0.036164057
0000e0 7f 9d 02 bd 34 bf d1 bc 12 6f a4 bc 5e 51 fd 3c
       -0.03188848 -0.025603868 -0.020072494 0.030922588
0000f0 bb dd 84 3c d5 a0 0f bd c6 02 b4 bc bb ed a3 3c
       0.01621901 -0.03506549 -0.021973979 0.02001082
000100 7d a2 33 bc 0a 50 04 3d d4 46 fb 3c e6 56 e6 3c
       -0.010964033 0.032302894 0.030673422 0.028117608
000110 d7 70 07 3d 18 07 b7 bc 3b 71 6b bd 44 77 ce 3b
       0.033066597 -0.02234225 -0.057481032 0.0063008387
000120 3b 01 0b bd 7b 55 24 bb a8 68 90 bc f9 12 26 3d
       -0.03393672 -0.0025075364 -0.017628029 0.040545437
000130 99 c6 50 bb 5e c7 e2 3b d9 e4 99 bc 78 be 0d bd
       -0.0031856655 0.006920739 -0.01878588 -0.034605473
000140 75 f2 64 bd 85 59 02 3d cc 3d e7 3c 0d d4 51 bd
       -0.055895288 0.031823654 0.02822771 -0.051227618
000150 f6 d9 b3 3c 0d e6 24 bd 3e b6 11 3d 68 9d 40 bc
       0.021954518 -0.040258456 0.03557419 -0.011756279
000160 c7 76 1c 3d 28 34 1f bd 9f fa 16 3d eb 54 76 bb
       0.038199212 -0.0388681 0.036860105 -0.0037587236
000170 25 b9 70 bc 5b dd 4e bd 57 fe 03 bd 2d 4b ce 3c
       -0.014692579 -0.05050407 -0.03222498 0.025182331
000180 5b e9 cf 3c 28 ef 4b bc cd 09 92 bc 69 f6 09 3d
       0.025379827 -0.012447156 -0.017826939 0.03368226
000190 f6 e6 dd bc 79 29 a8 3c 49 50 c4 3c f1 13 b6 3c
       -0.02708767 0.020527588 0.023964064 0.022226306
0001a0 93 50 6d 3c 48 a6 27 bc 0b ae ed bc 3b bc f9 ba
       0.014484542 -0.010232516 -0.029013654 -0.001905329
0001b0 07 c0 5e 3c 8d 8b b0 ba c6 41 1c bd bd 66 9f 39
       0.013595588 -0.0013469324 -0.038148664 0.0003040339
0001c0 7c 02 29 3d d8 52 af bc 6f cd e6 ba d4 70 db 3b
       0.041262135 -0.021401808 -0.0017608831 0.0066968
0001d0 25 d0 58 bc d9 b0 76 3b a2 73 00 3d 6c a2 43 bd
       -0.013233219 0.003764203 0.031360276 -0.04776232
0001e0 a6 7f b1 bc 3c 8b 78 bc 3f 76 2e bc 07 3b 6b bc
       -0.021667313 -0.015169915 -0.010648309 -0.014357335
0001f0 d8 4f cc bc 82 1c e8 3c 38 85 21 3c 56 01 b4 bc
       -0.024940416 0.028333906 0.009858422 -0.021973293
000200 49 cc 90 3c cd 72 2e bd 5d 21 56 3c cd d6 8f bc
       0.017675536 -0.04258995 0.013069478 -0.01755848
000210 a2 08 de 3c ef fe 1f 3d cc 02 0d 3c 07 6d f7 3c
       0.027103726 0.039061483 0.008606624 0.030203355
000220 db 05 e7 3b 51 c3 3f bd 01 82 08 3d 5c 78 de 3c
       0.0070502586 -0.046817128 0.033327106 0.027157001
000230 95 a4 ee bc f1 b4 7a bc d4 6a ea 3c f8 40 77 bb
       -0.029131213 -0.015301929 0.028615393 -0.0037727933
000240 ef 5a 46 3c 4f a2 10 3d 4c 94 1d bd 51 9a 21 3d
       0.012106641 0.03531104 -0.038471505 0.03945381
000250 2a 88 18 3d 51 89 24 3d 3c ea b5 bc a3 1c d3 bc
       0.03723923 0.040170018 -0.022206418 -0.025770491
000260 9b ed 6f 3c bd ca 17 bd bd 12 ed bb e6 25 9b bc
       0.014644052 -0.03705858 -0.0072349 -0.01893897
000270 1d 2e 7b 3c 22 f0 60 bd 4d 91 ae bc 75 01 07 3d
       0.0153308185 -0.05491651 -0.02130952 0.032960374
000280 13 fb 1c 3d 39 b6 c5 3c 2e 76 64 bb 23 cb 0e 3d
       0.03832538 0.024134742 -0.003486048 0.034861695
000290 4c 93 87 bc fb 52 dd bc 06 16 8d bc ce 13 fc bc
       -0.016549729 -0.027017107 -0.017222416 -0.030771162
0002a0 d5 c4 23 bd 27 f3 93 3c 70 bb 97 bc 97 65 5a 3a
       -0.039982636 0.01806028 -0.018521994 0.0008331178
0002b0 40 7b 1f 3d 58 f7 5c bb 8f 30 ca bb 08 0d 2a 3d
       0.0389359 -0.0033716764 -0.0061703394 0.041516334
0002c0 d1 7f 96 bc 07 aa 23 bc a9 cd 1f bd 3c 60 25 3d
       -0.018371494 -0.009989268 -0.039014492 0.04037498
0002d0 dc 51 16 3d 2c 9a 11 3d 84 8a 80 bb 40 21 28 3d
       0.03669916 0.03554742 -0.0039227623 0.041047335
0002e0 0c 3d de 3c 55 a6 37 bd 30 ef 0b 3c 94 77 44 bd
       0.027128719 -0.04483636 0.008540913 -0.0479656
0002f0 b2 69 dd bc ca 13 9f 3c f0 ab 8f 3c ec 81 e7 3c
       -0.027027939 0.019418616 0.01753804 0.028260194
000300 36 e4 9c bc b0 4a b6 bc 91 08 12 bb 11 ca 30 bd
       -0.019151788 -0.02225241 -0.0022282938 -0.043161456
000310 bf e7 9c bc af 33 55 bd 7b 91 f2 3c 3d be 80 3c
       -0.019153474 -0.052051242 0.029610386 0.015715713
000320 3e ad ac bc 09 12 28 3d 8f 3d d0 bc 5c 79 9e 3c
       -0.021078702 0.041032825 -0.025419978 0.019344978
000330 56 1c 10 3d 93 fe 2c 3c fd ef 32 bd fd a6 39 3d
       0.035183273 0.010558742 -0.043685902 0.045325268
000340 13 69 84 3c 1a 1e 36 bd df 5f 35 3b 7c 73 50 bd
       0.016163385 -0.0444623 0.0027675552 -0.050891384
000350 46 6a 2b bd 39 aa 3c bd 72 d3 9a bc 54 c5 e5 bc
       -0.041849397 -0.046060774 -0.018899653 -0.028048195
000360 c8 1a 25 3d 39 a7 1e bd 39 ae 20 3d 45 8f 86 bc
       0.040308744 -0.038733695 0.03922865 -0.016425738
000370 6c d1 81 3c 50 3d 51 bc a9 d9 c7 bc 20 c3 07 3d
       0.01584693 -0.012770966 -0.02439578 0.03314507
000380 90 35 9c 3a 29 35 5c bc cc 42 c5 3c 80 fe 25 3d
       0.0011917818 -0.013440409 0.024079703 0.040525913
000390 8c de 42 bd c0 81 21 3d e8 bf 9a 3c 36 1e 90 bc
       -0.04757552 0.03943038 0.018890336 -0.01759253
0003a0 66 d8 7c 3c 2c 49 05 bd 1f f3 ec bb 83 d8 f2 3c
       0.015432453 -0.032540485 -0.0072311307 0.029644256
0003b0 94 25 02 bd af c4 fc bc 21 69 2d bd 60 63 41 bd
       -0.03177412 -0.030855505 -0.042336587 -0.047213912
0003c0 2e fc 4e bd 4a 0f 8b bc b1 83 e8 bb 1a 80 6a bc
       -0.050533466 -0.016975064 -0.007095777 -0.014312768
0003d0 23 67 d6 bc 75 ae fd bc 1d ec ed 3a 1a b6 20 bc
       -0.026172226 -0.030966977 0.0018152032 -0.009809041
0003e0 a8 e5 5f 3b 23 d2 aa 3a 4a 29 53 b9 4d b1 d8 bc
       0.0034163985 0.0013032596 -0.0002013791 -0.026451731
0003f0 f5 a7 94 3c 7d 4a 40 3c 07 f4 da bb 01 3b 1f 3d
       0.018146494 0.011736509 -0.0066819224 0.03887463

column1.3.bias f4 [16]
000000 74 b5 88 3c d7 5c 3a bd 9b f7 e4 3b dd ee c8 bc
       0.016688086 -0.045498695 0.0069875247 -0.024527961
000010 ea 5e c8 3c 9f 2a aa bc 84 96 4d bd 59 cb d3 3b
       0.024459321 -0.020772276 -0.05019237 0.00646345
000020 b9 61 13 bc 09 c2 17 3d d6 f0 a0 3c 60 13 05 3c
       -0.008995467 0.03705028 0.01964609 0.008122295
000030 8d ad d0 3b d5 12 d3 bc 1a ea fb 3c 14 0a 46 bc
       0.006368345 -0.025765816 0.030751277 -0.012087364

column1.6.weight f4 [32, 16, 7, 7]
000000 dd ef ac 3c df 57 07 3c 21 5e c3 bc 90 dc 91 3c
       0.02111047 0.008260696 -0.023848595 0.017805368
000010 b2 3a e4 bc a9 8a 02 bc b6 5c 6c bc 1a b6 dd 3b
       -0.02786002 -0.0079676295 -0.014426401 0.006766093
000020 fb 18 25 bc e5 ef 9c bc b6 d2 ab 3b ab b3 5f bc
       -0.010076757 -0.01915736 0.0052436246 -0.013653676
000030 a4 81 6a 3a bf 6f b2 3c 48 c9 a3 bc 92 9f 9e 3c
       0.00089457096 0.0217818 -0.01999344 0.019363198
000040 63 a6 da bc dc 91 b8 3c 14 fc c5 3c c2 30 4f 3b
       -0.026690667 0.022530489 0.024168052 0.0031614755
000050 19 3e 3d 3c 61 f9 4c bc 2e 4d b1 3a 27 0e 99 3c
       0.01155045 -0.012510628 0.001352703 0.018683506
000060 f0 ab af bc 30 f1 fb 3c 5c 6e fc bc 0d 4b 45 3a
       -0.02144429 0.030754656 -0.030814342 0.0007526137
000070 06 08 9e bc c5 3b d8 bc 6a 66 80 3c 04 57 bb bb
       -0.019290935 -0.026395688 0.015673835 -0.00571716
000080 c7 20 01 bd 10 72 b9 3c 4c 28 08 bd 14 f7 8e bc
       -0.0315254 0.022637397 -0.033241555 -0.0174518
000090 a8 80 96 bc 1c 24 c6 3b d2 8c cc bb fa 8a 60 bc
       -0.018371895 0.006046785 -0.006242373 -0.01370501
0000a0 5b 22 27 3b 86 46 a0 3c 46 45 1c 3c 0e 0c c4 bc
       0.0025502655 0.019564878 0.009538 -0.02393153
0000b0 d1 30 ba bc 3e 8f 4a bc fb 89 bf 3c c4 cd fe bc
       -0.022728356 -0.012363253 0.023381224 -0.031103976
0000c0 b1 0a d7 3c 75 cd 08 bd 73 57 88 bc ee 13 85 3a
       0.026250215 -0.033399064 -0.016643262 0.0010153034
0000d0 3c 8c 49 3b bd e2 b3 3c 78 b9 82 39 c8 54 9f 3b
       0.0030753752 0.021958703 0.00024933717 0.0048624016
0000e0 69 31 08 bd 86 28 25 3c ca b0 a6 bc fa 76 e1 bc
       -0.033250246 0.010080462 -0.020347971 -0.027522553
0000f0 bf 0d a5 bc 80 4b 0e bd 64 e0 23 3c 02 6c b8 3c
       -0.020148156 -0.03473997 0.010002229 0.02251244
000100 66 f3 a2 3c e0 1f 08 bd 94 7c 67 bc 79 c8 13 bd
       0.019891452 -0.033233523 -0.014128823 -0.036079857
000110 60 88 e3 bc 99 c1 ce bc fe bc 4f 3c fb 19 99 3c
       -0.02777499 -0.025238799 0.012679337 0.018689146
000120 95 46 81 3b 63 d9 cf 3c 67 4b c0 3b 86 90 cd 3c
       0.0039451816 0.025372213 0.0058683637 0.025093328
000130 c3 01 88 3c fe a2 61 3b be 88 84 bc 4a 1a 6c bc
       0.016602403 0.0034429426 -0.016178485 -0.014410565
000140 74 95 cb bc c9 58 ca 3b a9 89 9b bc 75 bb bd bc
       -0.024851538 0.006175135 -0.01898654 -0.023160676
000150 41 4d 3b 3c 41 be b8 bc bb 49 0d bc fd 3e 97 bc
       0.011431993 -0.022551658 -0.008623536 -0.018462652
000160 5b 23 89 3b 53 35 93 3c 82 24 19 bd 52 d5 f5 bc
       0.004185123 0.017969763 -0.037388332 -0.030008946
000170 c6 93 55 bc 5c b8 52 3a f3 c9 32 3c e8 de b2 bc
       -0.01303572 0.0008038336 0.010912406 -0.021834806
000180 00 78 9e bc 22 39 25 bb 41 e4 a6 3c 0d 63 05 3a
       -0.01934433 -0.0025211056 0.020372512 0.0005088307
000190 c8 2a 49 bc 85 91 5b bc 19 7f 66 3c 7b 57 fd 3c
       -0.012278266 -0.013401394 0.014068388 0.030925503
0001a0 15 17 9f bc 59 84 a9 bc 2f c1 54 3c fd ed b0 bc
       -0.019420186 -0.020692991 0.012985512 -0.021597857
0001b0 31 6e 41 bb 47 48 ee bc 55 eb ce bc 5a 80 c2 bc
       -0.0029515142 -0.029087199 -0.0252587 -0.023742843
0001c0 e1 02 2f bc ea 48 22 3c 36 f2 a2 3b 9b 94 dd bc
       -0.010681839 0.009905079 0.0049727215 -0.0270484
0001d0 03 06 86 bc 14 de d6 bc f3 d9 37 3c 51 f1 75 3c
       -0.016360288 -0.026228942 0.011221397 0.015011148
0001e0 e7 53 cd 3c e5 a4 31 b9 47 54 50 bc fb a8 10 39
       0.025064422 -0.00016941463 -0.012715406 0.0001379586
0001f0 37 bf 68 3c 41 dc 37 bc 07 dc 42 bc 37 70 35 bc
       0.014205745 -0.011221946 -0.011893279 -0.011074117
000200 39 60 23 bd 7a ed 35 bc 62 48 3e bc 1c b8 f6 3c
       -0.039886687 -0.011103982 -0.011613937 0.030117087
000210 94 34 15 bd ee 33 1c bc 9a d0 24 bd 26 92 ec bb
       -0.036427096 -0.009533865 -0.040238 -0.0072195707
000220 37 36 94 3b a6 a6 f7 3c 28 06 fc 3b 87 8a 22 3b
       0.0045230645 0.030230831 0.0076911636 0.0024801807
000230 c6 c6 bb bc 1b 27 ee bc f5 3b ce 3c cc 6c 7a 3c
       -0.022921931 -0.029071381 0.025175074 0.015284728
000240 83 6e f8 bb b7 d1 a9 bc dc ce b1 3c 5c 92 15 bd
       -0.0075815334 -0.020729883 0.021705084 -0.036516532
000250 85 ca a7 3c d9 4c 35 bc 10 34 5c 3c 5c cb c8 3a
       0.020482311 -0.011065685 0.013440147 0.0015319395
000260 d4 2c 55 bc 99 2e a3 bc 32 d8 e9 bc 0f 05 78 bc
       -0.013011176 -0.01991968 -0.028545473 -0.015137925
000270 63 f0 e0 bc 06 22 89 bb 29 c7 70 bc 5e 4e ad 3b
       -0.027458375 -0.004184964 -0.014695921 0.005288883
000280 bb b6 ea 3b f5 df 5a bc 82 6b 9c 3c 10 f0 02 bc
       0.0071628965 -0.01335906 0.019094232 -0.007991806
000290 e5 a1 ac bb bc 65 66 bc 10 df 9f 3c 5f 47 42 3c
       -0.005268323 -0.014062341 0.019515544 0.0118578365
0002a0 37 0d ec 3c c2 49 41 3c c5 30 b6 3c 92 6b c9 3b
       0.028814895 0.01179737 0.022240052 0.0061468566
0002b0 20 8e c0 3c ab 40 81 3b ea 46 f2 bc dd 35 31 bc
       0.02350527 0.0039444766 -0.02957483 -0.010816065
0002c0 45 bb 8e bc df 8e 23 3c 91 18 f4 bc a2 26 c5 bc
       -0.017423281 0.009982794 -0.02979687 -0.024066273
0002d0 60 30 c8 bc fb 4f c0 3c ad 24 7f bc 04 e7 f4 bb
       -0.02443713 0.023475638 -0.015572709 -0.0074738283
0002e0 9d 82 5a bc ad 33 09 bd a5 31 10 bc 53 bd 90 3b
       -0.013336805 -0.033496547 -0.008800899 0.0044171005
0002f0 1f 90 a2 3c 82 ba f3 3b 71 60 8b bc 6a 01 e0 bc
       0.019844113 0.007438005 -0.01701376 -0.027344424
000300 67 d9 54 3c 91 6e 01 3a 40 07 36 bb 17 83 83 3c
       0.012991286 0.0004937435 -0.0027775317 0.01605372
000310 8f 3a 04 bd 6c 33 14 bd e3 52 ce 3c 66 46 8e bc
       -0.03228241 -0.036181852 0.025186008 -0.017367553
000320 86 52 ae 3c fe e3 35 3b 12 df e3 bc a8 c8 db bc
       0.021279585 0.0027754302 -0.02781633 -0.026829079
000330 82 a2 e0 3c 37 95 d1 3c 74 d7 04 bd 0b 6f f3 bb
       0.02742124 0.025583846 -0.032432035 -0.007429009
000340 98 33 4c bc fb 4a a6 bc e2 5b a6 3c 23 9a 0b bc
       -0.012463473 -0.020299425 0.020307485 -0.008520636
000350 8f 43 c4 3c 14 bb 34 bc 11 8a e8 bc 57 20 ae 3c
       0.023957996 -0.011030931 -0.028386148 0.021255655
000360 d2 01 11 bd 9b a0 d4 bc ab ed c1 3c bb 25 35 3c
       -0.035402127 -0.025955489 0.0236729 0.011056359
000370 2e d4 d1 3c 83 c7 25 bb 99 b5 22 bd 8a 92 16 bd
       0.02561387 -0.002529592 -0.039723966 -0.036760844
000380 43 a8 39 bc 90 ec b0 bc 9c bf d4 bb 28 b0 ad bc
       -0.011331621 -0.021597177 -0.006492568 -0.021202162
000390 f0 e7 c0 bc 23 55 5f 3c 7c f7 92 bb b3 e1 bb bc
       -0.023548096 0.013631138 -0.004485069 -0.02293477
0003a0 60 15 03 bc 13 11 d9 3c fe d2 81 3c 97 e4 6b 3c
       -0.008000702 0.0264974 0.01584768 0.014397762
0003b0 7c 5a 9d bc 19 b0 f0 bc 20 63 69 bc 15 b7 81 3c
       -0.019208185 -0.029380845 -0.014244825 0.01583437
0003c0 34 5d 19 bd 74 2b d9 bc 56 58 4c 3c 80 d5 b9 bc
       -0.0374424 -0.026509978 0.012472233 -0.022684813
0003d0 5e 67 9e bc 85 dc ac bc 1f 58 84 3c e4 fd c7 bc
       -0.019336399 -0.021101246 0.0161553 -0.024413057
0003e0 a9 f2 d1 3c 61 73 bd 3c 4a 71 8f bc 17 63 1a bc
       0.025628405 0.023126306 -0.017510075 -0.009423039
0003f0 54 2d d3 3c 20 ea 38 3c 02 8e aa bc 01 05 a1 bc
       0.02577845 0.0112862885 -0.020819668 -0.019655706

column1.6.bias f4 [32]
000000 e4 e6 9f bc 13 1b 9a bc 50 d6 5b bc cd 55 16 bc
       -0.019519277 -0.018811738 -0.013417795 -0.00917573
000010 f6 43 c0 bc 99 58 48 3c 05 d9 8c 3c 38 f7 68 3c
       -0.023469906 0.012228155 0.017193327 0.014219098
000020 1f ca 5d 3b a7 40 ba bc 57 b2 7b 3c 35 fd d0 bc
       0.0033842397 -0.022735907 0.015362344 -0.025511364
000030 4b ab bc 3c 6c b3 93 bc 2c 7d 09 bd de 54 22 bd
       0.023030898 -0.018029891 -0.03356664 -0.039631717
000040 15 e3 87 3b 1c f3 2d bc c0 49 be bc 3c 27 90 bc
       0.0041469433 -0.010617044 -0.023228526 -0.017596833
000050 5b db 03 bd df 29 b2 3c ed bd b9 3c 60 91 ce 3c
       -0.032191616 0.021748481 0.022673571 0.025215805
000060 05 a4 f8 3c d3 80 4e 3c 22 ac 8a bc 6c 39 12 3b
       0.030351648 0.012603956 -0.016927782 0.0022312058
000070 cd f1 09 3c 01 11 d1 3c 89 01 66 3c 0d eb 27 bc
       0.008419466 0.025520803 0.014038452 -0.010248912

column1.8.weight f4 [16, 32, 7, 7]
000000 f0 de e1 bc 23 91 9f bc 61 3f a3 3b f4 b1 91 3c
       -0.027572125 -0.019478386 0.0049819206 0.01778505
000010 55 9a 2b 3c 95 e3 ef 3b 9d ad fd 3b 77 ac 90 bc
       0.010473807 0.007320831 0.0077416436 -0.017660363
000020 8d 2b da bc dd bb 99 3c 5b 14 f5 bc 9a 68 74 bc
       -0.026632095 0.018766338 -0.029916933 -0.014917517
000030 d1 9e 51 3c 60 e3 a8 bc 87 9d 23 3c b1 81 56 bc
       0.012794212 -0.020616233 0.009986288 -0.013092444
000040 a3 a0 8e 3c bb b6 83 bc a5 ad 0c bc 83 a9 29 bc
       0.017410582 -0.016078344 -0.008586322 -0.010355356
000050 79 0d 7b 3c 72 74 b3 3b 37 6c 86 bb 2c e4 56 3b
       0.015323036 0.005476528 -0.0041022557 0.003278981
000060 df b1 3d 3c 80 8e 95 bc 77 94 97 bc f2 55 c7 3b
       0.011578052 -0.018256426 -0.01850341 0.0060832435
000070 90 72 75 bb 41 29 2f bc c7 0c ac bc 06 e7 4e 3b
       -0.0037452318 -0.010690988 -0.021002186 0.0031570806
000080 27 65 f8 ba 78 fc 95 bc 83 90 12 3c 07 e0 ad bc
       -0.0018951044 -0.018308863 0.008945587 -0.021224989
000090 39 27 26 3c 09 86 a4 bc a2 e8 61 bc 47 f0 95 bc
       0.010141187 -0.020083444 -0.013788374 -0.01830305
0000a0 d9 ec da bc df 92 10 bc 27 97 76 3c 97 66 c9 bc
       -0.026724266 -0.008824079 0.015050686 -0.024585051
0000b0 92 bb a3 bc 4d b5 75 bc 3a ef c0 bc 9d 5f f0 3b
       -0.019986901 -0.014996839 -0.023551572 0.0073356167
0000c0 47 85 26 bc 96 10 54 3c 5d 6b f9 bb 54 79 41 3b
       -0.010163612 0.0129434075 -0.0076116757 0.002952178
0000d0 c8 13 5d 39 50 27 8a 3c 17 ab 49 bc e7 60 a9 bc
       0.00021083571 0.016864449 -0.012308857 -0.02067609
0000e0 7e a5 49 ba aa ab ee bc 8b f1 db bc 07 3f f9 bb
       -0.0007692202 -0.02913459 -0.026848575 -0.0076063904
0000f0 4c ed 84 bb 70 85 69 bb 01 e4 bc bb a1 0d 8e 3b
       -0.0040566083 -0.0035632513 -0.005764485 0.004335121
000100 93 9e f5 bc 9f b4 dc bc ba 36 66 3c 6d ee 9a 3c
       -0.02998284 -0.026941596 0.014051134 0.018912518
000110 48 39 db bc 78 55 04 bb 75 15 6f bc 9b d6 ed bc
       -0.026760712 -0.0020192545 -0.014592518 -0.029032996
000120 27 69 a5 3a 99 c4 f3 bc 7f c2 e4 bc e7 a5 ca 39
       0.0012619839 -0.029756831 -0.027924774 0.0003865205
000130 c7 96 4a bc 35 06 ad bc ce 93 01 bc e5 33 82 bc
       -0.01236505 -0.021121124 -0.007908775 -0.015893886
000140 c8 58 b9 b8 95 8d 16 3b e5 67 82 3c 17 c8 8c 3c
       -8.838024e-05 0.0022972573 0.015918681 0.017185254
000150 00 03 ee bc cd 24 48 3c 11 54 58 39 54 9e 9c 3c
       -0.029054165 0.012215805 0.00020630682 0.019118465
000160 63 e8 11 3c ee 6a ee bb e6 a2 cb bb c4 f0 34 3b
       0.008905503 -0.0072759306 -0.0062144874 0.0027609328
000170 2c 9d a3 bc 5b 5b 17 3c 46 92 14 bc e2 2f bf bc
       -0.019972406 0.009238089 -0.009068077 -0.023338262
000180 4b 66 11 3c 33 13 b8 bc d2 8a 9f bc a4 84 f8 bc
       0.008874486 -0.022470092 -0.019475374 -0.030336685
000190 ca 6b 86 bc 0d 2d ab bc cc af b4 bc b8 65 f2 bc
       -0.01640882 -0.020895505 -0.022056483 -0.029589519
0001a0 19 f3 b5 bc 07 3f cd bc 31 39 8d bb d1 17 cc 3a
       -0.022210645 -0.025054468 -0.0043097963 0.0015571063
0001b0 d2 d7 ac 3a a1 30 a9 bc 19 3c 79 bc 39 48 cb bc
       0.0013186878 -0.02065307 -0.015212082 -0.024814712
0001c0 fc d3 99 3c 6c 57 9f ba f9 34 ec bb 9f 84 44 3c
       0.01877784 -0.0012156791 -0.0072084633 0.01199451
0001d0 fe 7a f4 bc 65 13 9e bc 14 13 25 3c 76 20 21 bc
       -0.029843803 -0.019296357 0.010075349 -0.009834399
0001e0 15 2b e9 bc 96 e8 86 bc a6 e1 7e 3b 31 0b f1 bc
       -0.028462926 -0.016468327 0.0038891821 -0.029424282
0001f0 d8 fb 63 3c c1 47 4b bb 59 41 f2 3b 06 60 1b 3c
       0.013915025 -0.003101811 0.007393044 0.009483343
000200 f6 dd f5 bc 40 d5 00 3c dc 3a cc bc bd 79 c2 bc
       -0.030013066 0.007863343 -0.02493041 -0.02373969
000210 e7 f9 d6 bc 38 b3 7d bc bd fd 7a 3c 37 ad db 3b
       -0.02624221 -0.015484624 0.015319285 0.0067039984
000220 b1 b4 b5 bc 1d 2f 20 3c e5 69 b9 bc 87 0a 90 3c
       -0.022180887 0.009776858 -0.022633502 0.017583145
000230 5c 3a 91 bb 0b 7d 8a bb 0e fd 9b bc d1 fa c5 bc
       -0.004432006 -0.004226332 -0.019041564 -0.02416745
000240 c9 c3 b6 3a 63 3e b5 bb 82 0f d1 3a 56 96 bd bc
       0.0013943847 -0.0055311187 0.0015950056 -0.023142975
000250 91 26 fb 3b f6 fe 1b 3c 2d cc 25 3c 3d e1 3d bc
       0.0076645096 0.009521237 0.01011948 -0.0115893455
000260 94 2c 59 bc 9d 47 f2 bc 09 06 4c bc 78 d8 88 3c
       -0.013255257 -0.029575163 -0.012452611 0.016704783
000270 15 f0 d4 bc 34 13 dc bc 54 5a d1 ba ec 50 f0 bc
       -0.025993386 -0.026864626 -0.0015972354 -0.029335462
000280 65 a9 67 bb 9b 9c 47 bc 56 8a 2a 3c c3 02 f2 bc
       -0.003534877 -0.012183334 0.010408958 -0.029542333
000290 ce 20 b3 bb 64 82 40 3c e9 75 e9 3b 70 fe 7e bc
       -0.005466557 0.011749838 0.0071246517 -0.015563592
0002a0 33 49 ea bc f4 c6 88 3c 10 8c 97 bc 6e 83 c4 bc
       -0.028599357 0.01669643 -0.018499404 -0.023988452
0002b0 6b 67 dc bc 8d ad 34 bc 66 b7 ce bc e4 d2 b1 bb
       -0.026904782 -0.011027706 -0.025233936 -0.0054267514
0002c0 00 38 21 bc a1 4c 9c bc 4e 8f ac bc 5a c1 4f ba
       -0.009840012 -0.019079508 -0.021064427 -0.0007925235
0002d0 c4 1b a9 bc 4b 12 96 3c 58 dd bc 3b 9e 22 f0 bc
       -0.020643122 0.01831927 0.005763691 -0.029313382
0002e0 96 84 1e 3c 15 b3 29 bb 9c 22 56 3c 02 28 c9 bc
       0.009675166 -0.0025894095 0.013069775 -0.02455521
0002f0 39 56 a3 bc db 05 5a bb 2a c6 3f 3c 95 33 e3 bc
       -0.019938575 -0.003326765 0.011704961 -0.027734557
000300 e6 4c 97 3c 1b 2f 2f bc b6 75 07 3c f5 cf 93 bc
       0.018469285 -0.010692383 0.008267811 -0.018043498
000310 f8 cd 21 3b 70 8d 6c bc a1 05 0a bc ed 6f 92 bc
       0.0024689417 -0.014438018 -0.008424194 -0.017875636
000320 ee 48 08 bc e9 fe 35 3c 95 f2 db 3b aa 74 25 bc
       -0.008318169 0.011108139 0.0067122676 -0.010098616
000330 c4 5a 2e 3c d2 87 9a bc 2e 74 f7 bc 75 a1 9c 3c
       0.010641757 -0.018863592 -0.030206766 0.019119957
000340 70 59 79 bc d7 e1 dc bc 44 47 29 bb a6 97 4e bb
       -0.0152190775 -0.026963158 -0.002582983 -0.0031523495
000350 b4 b9 34 3b 5d fb 44 bb 91 fb 3f bc b6 bc 9e 3b
       0.0027576508 -0.003005705 -0.011717693 0.0048442734
000360 f9 3a e7 bc 41 58 96 3c 1e 46 e8 bc c0 4b 79 bb
       -0.028226363 0.01835263 -0.028353747 -0.0038039535
000370 e0 ab dc bc 4a 75 7f 3c af 9a 88 38 ff cb bc 39
       -0.026937425 0.015591929 6.5137974e-05 0.00036010143
000380 bf 03 c6 bc 4f 4d df bc 49 54 e8 bc c8 c9 d5 bc
       -0.024171708 -0.027258543 -0.028360503 -0.026097193
000390 69 38 53 3c 5e 61 7c 3c dc 7e c9 bc e0 61 58 3c
       0.012891867 0.0154040735 -0.024596624 0.013206929
0003a0 76 d9 1c 3c 04 27 e0 bc ed 0b d5 bc a8 9c 86 3c
       0.009573331 -0.027362354 -0.026006663 0.016432121
0003b0 ce f9 9d bc 83 72 c0 bb ce a3 f9 bc 36 6a a8 3b
       -0.019284155 -0.005873026 -0.030473616 0.0051396145
0003c0 9c 79 23 3c 98 d7 3e 3c 81 71 0f 3c 51 55 e2 3a
       0.009977724 0.011648081 0.008755089 0.0017267858
0003d0 57 17 87 3c bd 43 f0 3a 0a 80 30 bc 24 3f 97 bc
       0.016490621 0.0018330734 -0.010772714 -0.018462725
0003e0 87 35 f5 bb d3 73 7c bc ee 76 e3 bc 19 d5 dd bc
       -0.0074831876 -0.015408474 -0.027766671 -0.027079152
0003f0 ed 6e 83 3c 1a 28 86 3c 4d 15 ab bc 53 64 df bc
       0.016044104 0.016376544 -0.02088418 -0.027269518

column1.8.bias f4 [16]
000000 fe 64 cf bb a0 43 8a 3b 45 72 19 ba 9f a9 4a 3c
       -0.006329178 0.0042194873 -0.00058535143 0.012369542
000010 cb 64 ab 3c f7 3f ad bc e0 db 97 3c 3f c6 4d 3c
       0.020922085 -0.021148665 0.018537462 0.012559473
000020 87 5d a8 bc fe 69 91 3c 83 dc 41 3c a1 18 9b bc
       -0.02055241 0.017750736 0.011832359 -0.018932642
000030 19 ca 43 bc 41 de 96 ba d8 e5 95 3c 7c 57 c2 bc
       -0.011950039 -0.0011510329 0.018298075 -0.023723356

column1.10.weight f4 [8, 16, 7, 7]
000000 5d c2 cb 3b 61 1b 3e 3c bc d1 92 ba af 03 36 bb
       0.0062182383 0.011603207 -0.0011201422 -0.0027773192
000010 c0 1a 00 3d b6 c6 d2 bc 9a ff 51 bc cf ec d9 3c
       0.03127551 -0.025729518 -0.012817288 0.026602177
000020 7d 97 1b 3d d7 38 f9 3c 56 ea f0 3c a0 b3 f3 bc
       0.037986267 0.030422611 0.029408615 -0.029748738
000030 20 9c 8a bc 47 62 86 3c 09 84 bf ba da cb c4 3c
       -0.01692015 0.016404284 -0.0014611493 0.024022985
000040 b0 38 94 3c e4 bf b0 3b de 84 a2 3c b7 12 d6 ba
       0.018093437 0.005393969 0.019838747 -0.0016332482
000050 c6 6f 0c 3d 43 74 82 3c 45 3c dc 3a 54 c7 0c 3d
       0.034286283 0.015924579 0.001680263 0.03436978
000060 c5 32 bd bc 14 f2 a8 3c 9f a1 d1 bb dc 58 68 bc
       -0.023095498 0.020623244 -0.0063974406 -0.014181342
000070 31 be 4e 3b 23 ff 17 3d a9 b5 22 3c 89 97 e8 3b
       0.0031546468 0.03710855 0.0099310065 0.0070981425
000080 be a6 8a 3b c7 60 4f bc 66 6f 95 bc f1 9d 14 bc
       0.004231303 -0.012657351 -0.018241595 -0.009070859
000090 80 20 ca 3b 23 c2 51 bc ad c0 e7 ba b7 da c8 bb
       0.006168425 -0.012802633 -0.0017681323 -0.0061295885
0000a0 e4 37 fd 3c 09 7a c7 bc a7 eb 50 bc 15 86 38 3c
       0.03091044 -0.024350183 -0.012751496 0.011262436
0000b0 8d 47 1a 3d ba c6 f7 bb 4c 4f 9e 3c 6e ec bb bc
       0.037665892 -0.007561532 0.019324921 -0.022939887
0000c0 0e 6b c6 bc fd 70 09 3c 4a 54 c4 bc 01 4d 0c bb
       -0.02422097 0.008388755 -0.023965973 -0.0021408203
0000d0 bf d0 1c bc d4 4f dc bc 84 41 6c bc b7 32 d5 bc
       -0.009571253 -0.026893534 -0.014419917 -0.02602516
0000e0 53 1b f6 bb 0b 1a d2 bb d8 3d e5 bc 18 9f 8a 3b
       -0.0075105815 -0.006411796 -0.027983591 0.0042303912
0000f0 39 cb c2 3a cb 90 4e 3b e8 98 de 3c a9 ae a2 3a
       0.001486159 0.0031519409 0.02717252 0.0012411672
000100 9b ef 95 3c 8b 00 87 bc a8 38 80 ba 30 7c a0 bc
       0.01830273 -0.016479751 -0.000978251 -0.019590467
000110 b8 bd 9e bb 6e 57 a9 3c 4a 36 40 3c a3 16 8f bc
       -0.0048443936 0.020671573 0.0117316935 -0.017466849
000120 7a 1e 71 bc c0 e2 01 bc 2f 70 b7 3c bc 5d 8b 3b
       -0.014716739 -0.007927597 0.02239236 0.0042531174
000130 72 d2 a1 3c f5 5f d2 3c 22 57 02 bd 3d c4 14 bd
       0.019753668 0.025680522 -0.031821378 -0.03631996
000140 bf 42 28 bc 01 51 82 bc 88 fe d5 3b 7c 09 b7 3c
       -0.01026982 -0.015907766 0.0065305866 0.02234339
000150 89 28 d8 3c 53 c9 ee bb 8e 0d 0f 3c 81 cb fe 38
       0.026386516 -0.0072871833 0.008731259 0.000121495694
000160 51 0b e3 3b 39 fe 17 bd e7 b6 e5 3c ac ac 69 bc
       0.0069288393 -0.03710768 0.028041316 -0.01426236
000170 dd 7d 1c bd 3e c6 ea bc 3b a5 93 ba 8e 16 a3 bb
       -0.03820597 -0.028658982 -0.0011264452 -0.004977054
000180 9e 09 d3 bc 27 96 95 3c 5f 29 d3 3b 3b 89 c4 3b
       -0.025761422 0.018260075 0.006444141 0.0059978045
000190 90 05 da 3c fd ba 89 bb 9a 45 40 bb c2 e3 d9 3c
       0.02661398 -0.004203199 -0.002933836 0.026597861
0001a0 f3 de 28 3c af 49 1b 3b 65 46 6a 3b 10 63 27 bd
       0.0103070615 0.0023695042 0.0035747525 -0.040865958
0001b0 55 dc 17 bd cd 31 fb bc d6 d2 2e 3c ae 80 15 bd
       -0.03707536 -0.030663395 0.010670384 -0.03649967
0001c0 bb 4e 82 bb b8 77 a9 bc 1f ed 2a bd 5f 6b 97 bc
       -0.0039766706 -0.02068697 -0.041730043 -0.018483816
0001d0 f6 38 38 3c 46 bb ef 3c e6 90 60 3c 83 ee 9d 3c
       0.011244049 0.029264104 0.0137064215 0.01927877
0001e0 9a 78 84 3c 70 52 a8 bc cf 5c ac 3c d1 ea 23 bd
       0.016170789 -0.020547122 0.021040348 -0.04001886
0001f0 86 98 c5 bc ba 98 e0 3c e6 35 1d bd 15 98 6f 3c
       -0.02412058 0.027416576 -0.03838148 0.0146236615
000200 f3 a4 82 bc 9b cf 69 3c fa 82 09 bd 7b f7 d9 bc
       -0.015947795 0.014270688 -0.033572175 -0.026607266
000210 b2 c8 48 bc 89 bf 8f 3c f4 77 dc bb c7 71 02 bd
       -0.012254881 0.017547386 -0.0067281667 -0.031846788
000220 f7 6a d5 3c 34 91 d0 3c 5e 34 1c bd 36 ea 54 bc
       0.026051981 0.025459863 -0.03813588 -0.012995293
000230 c6 9b 74 bc a1 5a a5 3c a1 dd c0 bc 0d d0 a7 bc
       -0.014929717 0.020184817 -0.02354318 -0.020484949
000240 d5 c5 fe bc e8 c6 2a bd e2 f4 f4 bc 33 cf 8d bc
       -0.031100193 -0.041693598 -0.029901925 -0.017310714
000250 bb 7a db 3c a0 73 0e bd 23 bf 97 bc f2 c3 d9 3c
       0.02679192 -0.034778237 -0.018523758 0.026582692
000260 e5 0d 89 3c 74 ca db bc 70 e1 99 3c 87 d1 12 bc
       0.016730258 -0.026829936 0.018784255 -0.008961088
000270 8f 11 a8 3c 58 db 94 bb f6 21 9a 3c d2 05 16 bc
       0.020516185 -0.0045427494 0.018815022 -0.009156661
000280 bf ae d8 bb 72 5f 01 3b 43 8f ee 3c da c8 a6 3b
       -0.006612628 0.0019740728 0.029121047 0.0050898613
000290 a4 d2 34 3c 2f 4c 54 3c a5 cd 14 bd 2c c1 0b 3c
       0.011036549 0.012957617 -0.03632893 0.0085299425
0002a0 78 b9 22 bd a0 5d d6 3c 0d 9e 96 3c 43 20 66 3b
       -0.039727658 0.02616769 0.018385911 0.0035114444
0002b0 9e 00 df 3c 1a 9d e4 bc f4 55 c8 3c 75 bb 65 bb
       0.027221974 -0.027906943 0.024455048 -0.003505436
0002c0 09 6b a3 3c 8c 7d b5 bc a9 bf 41 bc a6 6e 7e 3c
       0.0199485 -0.022154592 -0.0118254805 0.01552931
0002d0 67 a9 4c 3c 65 16 aa bc 5b 5a 58 3c 16 f7 2a bd
       0.012491561 -0.020762632 0.013205136 -0.041739546
0002e0 2a 43 c6 3c 36 bf df 3c 0e a8 bd bc e8 68 bc 3b
       0.024201948 0.027312856 -0.023151424 0.0057498105
0002f0 97 7c e3 bc 0e aa f2 bc 45 3c d5 b9 34 f3 19 3c
       -0.02776937 -0.029622104 -0.0004067143 0.009396363
000300 da 09 27 bd 0d 4a 4f bc 19 90 bb bb 86 a4 3a bc
       -0.04078088 -0.012651932 -0.005723965 -0.0113917645
000310 bb 34 25 bc 6a 78 e4 bc f2 d5 ad 3c f4 fb 3e bb
       -0.010083373 -0.02788945 0.021220181 -0.0029141875
000320 27 bd 10 bd 36 58 94 3c 19 dd 27 3c e6 fe a0 3c
       -0.03533664 0.018108469 0.010245585 0.019652795
000330 ec 7d f4 3c 3b 46 6d bc 96 6d 02 3c 45 67 f5 bc
       0.0298452 -0.014482076 0.007960698 -0.02995647
000340 4d 78 19 3c 4c 79 fd bc a8 c5 25 bc db 4f bc bc
       0.009367061 -0.030941628 -0.010117926 -0.022987297
000350 40 7b d5 bc 66 b3 da bb da f5 12 bd a7 4d 14 bb
       -0.026059747 -0.006674218 -0.035878994 -0.0022629292
000360 57 ee 58 3c 94 80 53 bc 2e f1 52 bb a1 ae f4 bb
       0.013240418 -0.012909073 -0.0032187211 -0.0074671065
000370 b5 82 72 3c 64 c5 a7 bc b2 f5 ee ba 77 ab 0d bd
       0.014801671 -0.020479865 -0.0018231182 -0.03458735
000380 f9 84 21 3c ac 6a da 3c 73 81 ca bc 9b 9a 81 bc
       0.009858363 0.026662193 -0.02471993 -0.015820792
000390 cb 4f 0d bc 8b 9c d2 bc 0b 13 01 3d 9e cd d6 3c
       -0.008624981 -0.025709411 0.0315123 0.026221093
0003a0 c3 15 27 bc d8 f0 13 3c 7e 10 9d 3c c6 90 a4 3c
       -0.0101980595 0.00902959 0.019172903 0.020088565
0003b0 f2 11 b5 3c 5d 8f 07 bd f7 96 9f bc 09 77 c5 3c
       0.022103284 -0.033095706 -0.019481165 0.024104612
0003c0 b3 b4 27 bc d7 4f 44 3c 1a be cd bc 1d 0e fa bc
       -0.010235953 0.011981926 -0.025115062 -0.030524308
0003d0 85 72 48 3c 57 34 a0 3c 41 6c cf 3c da 37 1c bc
       0.012234335 0.019556208 0.025320174 -0.0095348
0003e0 64 92 92 3c d4 0f ca 3c f8 fd 9b bc 2d 20 95 3c
       0.01789207 0.02466575 -0.019042 0.01820382
0003f0 de 25 d9 3c f1 b1 77 3c b1 36 cb bc 17 63 05 bd
       0.026507314 0.015118108 -0.024806352 -0.032565203

column1.10.bias f4 [8]
000000 25 79 c9 3c 29 87 ed 3c 35 95 74 bc e3 6b ba 3c
       0.024593899 0.028995113 -0.014928152 0.022756523
000010 70 85 c9 39 e5 fc 87 3b 66 23 c6 3c da 5b 79 bc
       0.00038437126 0.0041500204 0.024186801 -0.015219653

column2.0.weight f4 [10, 3, 7, 7]
000000 bb 9c 9a 3d a0 37 99 3c f4 31 bf 3c c4 81 9a 3d
       0.07549425 0.018703282 0.02333925 0.07544282
000010 03 74 91 3d 2a 6b c9 3c 23 aa 9b bd bd 13 43 bd
       0.071022056 0.024587233 -0.076008104 -0.047626246
000020 98 df 89 bc 11 89 81 3d 7b 03 16 3d 9e 3c 36 bd
       -0.01683025 0.063249715 0.036624413 -0.044491403
000030 9e c7 10 3d 29 48 76 3d c9 6c 71 3d 83 b0 95 3d
       0.03534662 0.06012741 0.058941636 0.073090576
000040 76 d3 c7 bc 75 80 ef bc 09 75 12 3d a7 fb 93 bd
       -0.024392825 -0.029236058 0.035756145 -0.07225733
000050 c4 9a 15 3d 7a ca b5 3c 76 d4 40 bd 6c e1 44 3d
       0.03652455 0.022191275 -0.04707762 0.04806654
000060 c8 6f 92 3d 7f 50 5e 3d e5 ea 4b 3d 63 e6 a1 bd
       0.07150227 0.054275986 0.04978456 -0.07905271
000070 17 69 0f bd 66 55 bf bb f7 bb 10 3c c0 65 a2 3d
       -0.03501233 -0.0058390377 0.008833877 0.079295635
000080 4e ca 9e bd d4 09 80 3c 2d 96 e8 3c ff 78 99 bc
       -0.0775343 0.015629686 0.028391922 -0.018734453
000090 9c b9 48 bd e8 73 60 3d 59 b1 93 3c e8 f1 2d bd
       -0.049005136 0.054798037 0.018028902 -0.042467028
0000a0 84 a5 3b 3d 94 cf e5 bc 61 09 b0 bc c9 ed ff bc
       0.045812145 -0.028053083 -0.021488847 -0.031241314
0000b0 c1 b1 65 bd d6 c4 8b 3d 13 d9 65 bd 02 04 15 bd
       -0.056077722 0.06824653 -0.05611522 -0.036380775
0000c0 ca ae 3c 3d d6 49 64 bd 0f ab fb 3b 65 21 a0 3b
       0.04606513 -0.055734478 0.007680304 0.0048867934
0000d0 08 a3 0c 3d 40 5a a3 3c 83 bb 06 bd 55 8c 4d 3c
       0.034335166 0.019940495 -0.03289367 0.012545665
0000e0 15 fc 0b bc 11 97 73 3b c4 0c 29 bd 57 c2 a3 3d
       -0.008543988 0.00371689 -0.04127194 0.07996052
0000f0 fb a5 43 bd 31 f8 91 bd ad 69 99 3d b3 15 5c bd
       -0.047765713 -0.07127417 0.07490859 -0.05373163
000100 dc 0f 03 bd 04 24 86 bc 88 fe 86 bd 1d 59 ef 3c
       -0.031997547 -0.016374595 -0.06591517 0.029217297
000110 89 a9 8d 3c 2c e7 34 3d bc 3c 36 3d 28 45 a6 bd
       0.017292755 0.044165775 0.044491515 -0.08118659
000120 32 ae 72 3d 6b 7d 9a bd 71 ca 3c bd 08 11 06 3d
       0.059248157 -0.07543453 -0.0460915 0.032731086
000130 9d ea 20 3c 9b b4 13 3d 3e b1 f6 3b 97 dd 30 3d
       0.009821561 0.03606091 0.007528453 0.043180075
000140 9b 52 35 bb 79 06 c0 3c de 23 a8 bd 9c fd a7 bc
       -0.0027667645 0.023440586 -0.08209966 -0.020506673
000150 60 a1 69 bd bf 4d 16 bd bc 2b 0c 3d 86 2c 78 3d
       -0.057038665 -0.03669524 0.034221396 0.060589336
000160 28 66 8a bd a3 30 3f 3c 88 f2 04 3d 39 07 59 bd
       -0.06757766 0.011669311 0.03245786 -0.052985404
000170 f1 c8 78 bd 8b 5a 65 3c 93 f8 33 bd 11 0e 44 bc
       -0.060738508 0.013998638 -0.04393823 -0.011966244
000180 f0 52 73 3d 7c 72 43 3c d3 4d 82 bd 24 f3 b5 bc
       0.059405267 0.011929151 -0.063625 -0.022210665
000190 62 ad 43 bd b4 2b 6e bc c3 bc c6 3c 0a cb 71 bd
       -0.047772773 -0.014536787 0.02425993 -0.059031524
0001a0 a6 bb 0c bd f7 5a 84 bd a9 39 6b bd ea 06 c2 bc
       -0.034358643 -0.06462663 -0.057428036 -0.023684938
0001b0 4e 96 c3 3b 93 96 23 bd bf 28 4e 3c c3 cd 85 3c
       0.0059688454 -0.03993852 0.012582957 0.016333466
0001c0 1d e7 30 bc 70 a0 ed bb 31 f8 a5 bc 82 5b a3 3c
       -0.010797289 -0.0072517917 -0.020259948 0.019941095
0001d0 cf 1d 29 3c 49 1e a4 3c 56 5a d8 3b fb df 41 3d
       0.010322048 0.020033972 0.0066025658 0.047332745
0001e0 7a 3f 98 3c ae d3 23 bd 37 95 88 3c 10 48 b3 3c
       0.018584955 -0.039996795 0.016672714 0.021884948
0001f0 7a b8 83 3d 7d 3f 6a bd fb 91 f2 bc 67 c7 4e 3d
       0.064316705 -0.057189453 -0.029610625 0.050483134
000200 35 c1 57 3c b4 a3 97 3c 5e e6 a5 bd fc 44 ee 3c
       0.013168623 0.018510677 -0.0810058 0.029085629
000210 cb bc 0b 3d d2 0a 9e 3d 40 99 85 3d ef f1 7e 3d
       0.034115594 0.077169076 0.06523371 0.062242445
000220 bb d6 17 3d 7b 92 17 3d 7a 0d 4f 3d cd ba e1 bb
       0.037070017 0.03700493 0.05054996 -0.0068887235
000230 8c f0 18 3d 8d 11 4e bc 48 d6 9b 3d b7 b3 a2 3d
       0.03733878 -0.012577427 0.0760923 0.07944434
000240 5a 0a 87 3d 83 21 68 3d a7 c6 2d 3d 8b 0f 1b bd
       0.06593771 0.056672584 0.042425778 -0.03785662
000250 b4 0c be bc fb bd af 3b 54 53 66 3c 17 4a 93 bd
       -0.023199417 0.0053632236 0.014057953 -0.07191866
000260 ec 01 1e bc 83 1f 52 3d 47 01 69 bc 3d bd e5 3c
       -0.009644013 0.051299583 -0.014221496 0.028044337
000270 5d 67 7d 3d 7b f3 24 bc 93 5c ac bb 07 c9 a5 bc
       0.061866153 -0.010067816 -0.005260059 -0.020237459
000280 6a 9b 21 bd af 77 10 3d bb c0 a6 bd f9 38 83 3d
       -0.039454855 0.03527039 -0.08142229 0.06407351
000290 ea ba 5a bd 42 df 81 3d 6b 08 9d bd 6d 6c a1 bd
       -0.05340091 0.06341411 -0.07667621 -0.07882009
0002a0 18 fa 08 3c 2f 4d 17 bd 1c cd 87 bb 6c 7f 47 3d
       0.008360408 -0.036938842 -0.004144324 0.048705503
0002b0 a7 3d 50 3d b7 b4 e9 bc 7e 94 72 bd 93 d0 84 bd
       0.050840046 -0.028528554 -0.059223644 -0.06485095
0002c0 c2 d8 96 3d 5f b9 8c 3d 0f db 4e 3d e0 fb bb bb
       0.07365562 0.06871294 0.05050188 -0.005736813
0002d0 30 e4 6b bd 35 c6 6a bc a7 b0 21 bd b4 8f 6f 3d
       -0.057590663 -0.014329483 -0.03947511 0.058486655
0002e0 6b fa 28 bd 95 c7 05 3d 1a 1d 33 bd 17 7a 32 bd
       -0.041254442 0.03266104 -0.043728925 -0.043573465
0002f0 71 d5 19 3d 3e 0b aa bc 05 4e 84 bd 3d f3 9b bd
       0.03755707 -0.020757314 -0.064601935 -0.076147534
000300 19 64 01 3d cd 57 c2 bc 4a 04 3e 3d 62 67 06 3c
       0.0315896 -0.023723507 0.04639081 0.008203359
000310 4a 50 34 3d d7 d3 24 3d e9 ae 8c 3d 7c 94 3c 3d
       0.044021882 0.04024109 0.06869299 0.046040043
000320 ba d7 d2 bc ea ef 87 bd c6 1b 90 3d 96 00 08 ba
       -0.025737632 -0.06637557 0.07036547 -0.00051880756
000330 60 5b 61 3d b3 7c 23 bb fa c1 ca 3c 78 bd 4b bd
       0.055018783 -0.0024946153 0.024750698 -0.04974124
000340 de 2c 92 3d 72 8b 2e bc a3 16 94 3c fc 75 07 bd
       0.07137464 -0.010653364 0.0180772 -0.033071503
000350 b8 93 32 bd 5c a1 98 bd 37 28 89 3d e4 ba d9 bc
       -0.043597907 -0.07452652 0.066971235 -0.026578374
000360 e1 fb 64 3d bc bd ee bc f9 91 a3 bd 67 64 0a 3d
       0.055904273 -0.029143207 -0.079868264 0.033787157
000370 ac a1 ec 3c 05 18 5c bd ea 46 b9 bb 5c 95 89 3d
       0.028885685 -0.053733844 -0.0056542056 0.06717941
000380 54 1d 27 3d 8e 1b 65 3d 54 dd 82 bd 5e c7 3b 3d
       0.040799454 0.05593448 -0.06389871 0.04584443
000390 d9 2c 8b bb b3 2d 6e 3d b3 10 2b 3d 83 be 1e 3d
       -0.0042472896 0.05814905 0.041763972 0.038755905
0003a0 a9 c4 11 bd 05 18 81 3d 4c c3 80 3a 91 c0 1d bd
       -0.03558794 0.063034095 0.0009823828 -0.038513724
0003b0 40 db 7c bd 53 76 98 3b 75 28 f7 3c cb 6b 98 bc
       -0.06173253 0.004652777 0.030170659 -0.018606087
0003c0 77 1f 84 3d 00 17 63 bd c0 44 1b bc 5f ea 86 3d
       0.06451314 -0.055441856 -0.0094768405 0.065876715
0003d0 cb 2e 5f 3b 8b 75 78 3d b7 5c 86 38 b4 b6 73 bb
       0.003405499 0.060658973 6.4068874e-05 -0.0037187757
0003e0 6d 69 ba 3c 68 7b 01 bd 99 52 8e bd 8a 09 4f 3d
       0.022755349 -0.03161183 -0.06949348 0.050546207
0003f0 49 6e 46 bc c8 8d 67 bd 36 93 f2 3c c0 07 ca bc
       -0.012111255 -0.056531698 0.029611211 -0.024661899

column2.0.bias f4 [10]
000000 e2 78 a7 bc f1 57 18 bd a4 68 ae bd c6 aa 2b 3c
       -0.020443384 -0.037193242 -0.08516052 0.010477727
000010 a5 08 a8 bc 6a 8f 60 3c 83 e3 2e bd 85 40 5c 3c
       -0.020511935 0.013706068 -0.04269744 0.013443117
000020 8b 0d 20 3d 33 bf 2f 3d
       0.039075416 0.04290695
