crowd_counting.pth (torch, 583347 bytes, 31 tensors)

column1.0.weight f4 [8, 3, 9, 9]
000000 90 ea 0c 3d 5f df 1a 3b 94 92 3c bd f6 a9 59 bd
       0.034403384 0.0023631675 -0.046038225 -0.053140603
000010 e3 d9 f5 3c 58 df 8d 3c 0d 71 b3 3c 62 73 82 bd
       0.030011123 0.017318413 0.021904493 -0.06369664
000020 ab 6a 20 bd 4b c4 6c bc c5 80 11 bb 46 04 8a bd
       -0.039164227 -0.014451097 -0.0022201997 -0.06739096
000030 eb 02 00 3d 68 91 7f 3c a6 96 ba bc b5 1c 4c 3d
       0.031252783 0.015598632 -0.022776913 0.049832065
000040 51 ec 1d 3d dc 6f 69 bd 32 b9 81 3c 27 92 6c 3c
       0.038555447 -0.056991443 0.015835378 0.014439142
000050 73 9b 0b 3d 30 66 e2 bc 4c 80 87 bc 92 68 e1 b9
       0.034083795 -0.027636617 -0.016540669 -0.00042993255
000060 3f 48 59 bd 05 c1 02 3d 2c 45 28 3d 83 79 6b ba
       -0.053047415 0.03192236 0.041081592 -0.0008982645
000070 8c 0c af 3c 9b 85 0d bd e8 4f eb 3c f9 e1 49 bd
       0.021368288 -0.034551244 0.028724626 -0.04928777
000080 bd a0 42 3d b1 f6 79 3c 29 1f 1c 3c f7 9e 43 3d
       0.047516573 0.01525657 0.009528914 0.047759023
000090 6a 92 16 bd 36 cf 84 bd ba 0c 48 3d 51 2d 7d ba
       -0.036760725 -0.06484835 0.048840262 -0.0009657937
0000a0 c8 88 59 3d a3 ca dd 3c b3 58 76 3d 23 20 ad 3c
       0.05310896 0.027074164 0.060143184 0.021133488
0000b0 c0 57 78 3d 65 2f 0d bd 24 08 c9 bc 28 b3 19 3d
       0.06063056 -0.034469027 -0.024540015 0.037524372
0000c0 13 60 a2 bc 97 75 70 bd 19 29 ae bc 4f 20 9b 3c
       -0.019821202 -0.058705892 -0.021259831 0.018936304
0000d0 34 6d 48 3d 4a 69 10 bc 7f ab 84 bd ee 3d 38 bd
       0.04893227 -0.008814165 -0.06478023 -0.044980936
0000e0 e3 18 65 bd 22 28 60 3d 7c 68 65 3d 36 6a 09 bd
       -0.055931937 0.054725774 0.056007847 -0.033548556
0000f0 50 47 6e bd 8c a5 02 3c 43 b0 55 bc 5b 23 1c bd
       -0.058173478 0.00797404 -0.013042512 -0.038119655
000100 28 91 03 bc bd 96 2d 3d f5 f1 6f bd ba 81 77 bd
       -0.008030213 0.042380083 -0.058580358 -0.06042645
000110 24 30 88 bd af dc ca 3c 03 0c 6d 3d d4 c5 4a 3d
       -0.06649807 0.024763433 0.057872783 0.04950507
000120 ae 40 6c bd f2 83 31 bd 63 32 ec 3c 90 6f 20 bc
       -0.05767887 -0.043338723 0.02883262 -0.009792224
000130 d1 5e e2 bc 0d 98 33 bc 33 bf 62 3b c2 b2 7c bd
       -0.027633103 -0.010961545 0.0034598827 -0.061693914
000140 1b 4a 4e bd 93 db d5 bc 4a 67 88 bd 36 69 81 bd
       -0.05036364 -0.026105678 -0.06660326 -0.063188955
000150 36 fe bd bc a0 db c4 3c 1c 14 74 bd d4 e5 5b 3d
       -0.023192506 0.024030507 -0.05958949 0.053685978
000160 c4 80 37 bd 4c 8a b6 3c 8c 35 40 bd 0f 25 48 3d
       -0.044800535 0.022282742 -0.046926066 0.048863467
000170 19 a7 c3 bc 15 97 1f 3c 8b ba 48 bd 1e 9f d4 3c
       -0.02388339 0.009740611 -0.049006026 0.02595478
000180 a5 35 24 bc ae c7 25 3d 9f 72 ea bc 4a 30 6e 3d
       -0.0100225555 0.040473633 -0.028619109 0.05815152
000190 ea b7 81 bd 00 b7 4d 3c 26 85 54 3d ee 8a 25 bc
       -0.06333907 0.012555838 0.051884793 -0.010103924
0001a0 0b 9f 2e bd 74 21 bf bb 63 a3 12 bb 53 31 8e 3c
       -0.042632144 -0.0058328453 -0.0022375218 0.017357504
0001b0 0a d2 55 bd 15 33 69 bd 71 8b da 3b d5 61 81 3b
       -0.052202262 -0.05693348 0.0066694547 0.00394843
0001c0 b5 14 2e bd b7 51 ba bb e5 93 dc bc a4 12 15 bc
       -0.042500217 -0.0056860107 -0.02692599 -0.009098683
0001d0 b3 6f 50 bd 8f f8 42 bc c8 1c 46 bd dc aa b1 3c
       -0.050887775 -0.011900081 -0.04836729 0.021687917
0001e0 fa 4d 0e bc cc 6a 54 bd 63 94 c9 3c c3 48 98 b9
       -0.008685583 -0.051859662 0.02460689 -0.0002904591
0001f0 f6 c5 78 3d 9e 0e 36 bd 4a 0e 02 3d 8b 8c 9d bc
       0.060735665 -0.044447534 0.03175191 -0.019232055
000200 c7 16 f5 3c 94 a6 54 3d 2c 8e d2 3c 3d 80 b1 3c
       0.029918088 0.051916674 0.025702558 0.021667594
000210 3d 99 98 3c a8 45 10 3c 06 e7 c9 bc 65 99 be bc
       0.018627757 0.00880567 -0.024646293 -0.023266504
000220 29 cf 73 3d c4 a3 4e 3c 5c d8 5b bc 6e ca 43 3d
       0.059523735 0.012612287 -0.013418283 0.047800474
000230 18 e3 d0 3c 3c 81 38 bd a3 d1 73 bd dd 95 08 bd
       0.025498912 -0.045045123 -0.059526097 -0.033346046
000240 91 2d 5c bc 61 a0 af 3c 35 5a 42 bd 7d ba 9b 3b
       -0.013438598 0.02143878 -0.04744931 0.0047524557
000250 35 04 5b 3d e2 04 2c 3d 4e af 7e 3b 43 4a 9e bc
       0.05347081 0.041996844 0.0038861814 -0.01932252
000260 6e 89 8d bb c3 e7 2b bd 48 43 fc ba a4 8e 7d bc
       -0.0043193614 -0.041969072 -0.0019246126 -0.015475903
000270 30 41 34 3d b8 14 20 3d d4 9d 1e bd 34 fb 54 3d
       0.04400748 0.03908226 -0.038724735 0.05199738
000280 0e eb 35 3d 42 dc 81 bd bb aa 03 bc ff 67 59 bd
       0.04441362 -0.06340839 -0.008036311 -0.053077694
000290 1b a9 62 3d 5f a6 00 3d ec 18 7e bd 20 b6 3a bd
       0.055337053 0.031408664 -0.062035486 -0.045583844
0002a0 95 5d 45 bd 96 15 1e 3d 4b de 84 bb 0d a7 05 3d
       -0.04818495 0.038594805 -0.0040548197 0.032630015
0002b0 6b 4b bc bc 44 a2 bb 3c 2c 22 60 3d a6 db 48 3d
       -0.02298518 0.022904523 0.05472009 0.049037598
0002c0 24 b7 17 3c 50 c0 78 3c d6 1c e2 3c ce ec d8 bc
       0.009259973 0.01518257 0.02760164 -0.026480105
0002d0 be ea 79 bb 3e 6c 6c 3d f0 ae 0d bc b8 0a 76 3b
       -0.0038134302 0.057720415 -0.008647665 0.003754301
0002e0 0e 1d e5 3a 53 57 4f 3d 7f 48 57 bd 58 9c 31 3d
       0.0017479972 0.05062039 -0.052559372 0.04336199
0002f0 c7 8b 74 3d 54 5b 06 bc 70 de fb bc de ae a8 3c
       0.059703615 -0.008200485 -0.030745715 0.020591196
000300 d0 77 5a bd a2 91 c7 bc 98 06 32 3d 63 7d 7c 3b
       -0.05333692 -0.024361435 0.04346332 0.0038526885
000310 f2 25 02 bd 69 e4 ef bc 56 ef 0a bb 3b 22 46 3d
       -0.03177447 -0.02928372 -0.0021199784 0.04837249
000320 52 46 a9 bc 38 7f 75 3d dc 5d 78 3d 39 97 5e bd
       -0.020663414 0.05993578 0.060636386 -0.054343436
000330 95 a5 01 3c 68 03 d6 bc 52 fa 19 3d 57 a0 89 bd
       0.007913013 -0.026124671 0.03759224 -0.067200355
000340 07 dd 61 3d 29 52 2c bd 69 e8 d8 bc 3a 30 62 3d
       0.05514243 -0.04207054 -0.02647801 0.055221774
000350 26 e8 0f 3d a9 5d 37 bd e0 2a 37 bc 40 66 50 3d
       0.035133503 -0.044767056 -0.011179656 0.050878763
000360 ea 93 23 3d 55 f2 36 bd f5 51 0c bb 6f ca e6 b9
       0.039935984 -0.0446647 -0.0021411155 -0.00044019843
000370 10 af 74 3d b1 e4 90 bb 6a 6d 0c 3d b7 89 59 3c
       0.059737265 -0.0044217934 0.034284033 0.013277463
000380 12 8b a5 bc 82 e4 20 3d a1 be b3 bc 83 7b c1 bc
       -0.020207915 0.039280422 -0.021941485 -0.023618465
000390 38 00 08 bd 80 33 af bc e4 d3 e3 3c d1 3f 2a 3d
       -0.033203334 -0.021386862 0.027810998 0.041564766
0003a0 c5 aa 37 bd 43 a4 54 3d bc 58 68 3d 75 02 5d bc
       -0.044840593 0.051914465 0.05672525 -0.013489355
0003b0 6e 87 f9 bb 30 69 64 3d 78 b5 f5 3c 2a 24 05 bd
       -0.0076150214 0.055764377 0.029993758 -0.03250519
0003c0 fe 7e 41 bb 03 91 47 3d 0f c6 54 3d 29 b6 c3 bb
       -0.0029525156 0.04872228 0.051946696 -0.005972643
0003d0 ea 58 12 3d 5a c8 ab bc e9 5d b3 3c aa 29 91 bc
       0.035729326 -0.020969559 0.021895366 -0.017720062
0003e0 99 6f 57 bc ac 21 33 bd 95 93 9c 3b 0f ec 8b bc
       -0.013149166 -0.043733284 0.0047783353 -0.017080335
0003f0 dc fe 52 3d 7e f7 00 bb 45 54 40 3d d3 5d 81 3c
       0.051512584 -0.0019678767 0.046955366 0.01579181

column1.0.bias f4 [8]
000000 53 d0 4f 3d 61 90 01 bd be 6a 3b 3d fc 85 87 39
       0.050735783 -0.03163183 0.045756094 0.00025849033
000010 a5 cd 2e 3d c6 57 10 3d 26 03 19 bd 4e b8 25 bd
       0.042676587 0.035239957 -0.03735652 -0.04045897

column1.3.weight f4 [16, 8, 7, 7]
000000 01 aa 23 3d 7d 63 c3 bc 6a d7 11 bd d5 2c 07 bb
       0.03995705 -0.02385115 -0.035605825 -0.0020626087
000010 8b 99 dd bc 85 71 b8 3c b8 2a 86 bb ad 7f b3 3c
       -0.027050754 0.022515068 -0.004094448 0.021911466
000020 0e 4d 3d bd 71 21 2a 3c b8 4a 26 bd a9 9f b2 3c
       -0.046216063 0.01038395 -0.0405986 0.021804648
000030 ee 1d 86 bc b6 5b 4f bd df 37 88 3c 13 c7 92 bc
       -0.016371693 -0.05062457 0.016628204 -0.017917192
000040 07 b8 64 3c d3 89 a8 bc 5a 49 41 bd 33 d6 ab 3b
       0.013959891 -0.020573532 -0.047189094 0.0052440404
000050 ce 4a 4b bd c0 52 a2 3c b5 4f 09 bd c9 84 eb bc
       -0.049631886 0.019814849 -0.03352328 -0.02874984
000060 72 a2 f1 3c 2b 0e e0 3c 95 39 7f 3c 2c 7a a0 3c
       0.029496405 0.027350506 0.0155776935 0.019589506
000070 cf 32 e0 3c 5f 7f 2e bc 9f 1d ca bb 24 c2 09 3c
       0.027367977 -0.010650485 -0.006168082 0.008408103
000080 6b 7a 24 bc ba c3 3b bd 9e 1a bf 3c b9 89 88 bc
       -0.010038952 -0.045840956 0.023328122 -0.016667234
000090 82 c5 11 bd 61 d4 54 bd d8 18 13 3d 39 a2 9e 3b
       -0.03558875 -0.051960353 0.035912365 0.004841116
0000a0 f4 10 fb bc c5 c0 ab 3c f5 3e 3f bd c8 9a 1a 3d
       -0.030647732 0.020965943 -0.0466909 0.037745267
0000b0 4a 34 fb 3a 15 f3 d8 3c ce d4 1e bc ff d4 82 3c
       0.0019165364 0.026483098 -0.009694291 0.015970705
0000c0 64 2b cb bb 33 87 2c bd 1e 7a da 3c 2d da c3 3c
       -0.006200241 -0.042121124 0.026669558 0.023907745
0000d0 fb 16 54 bd 9d e2 c5 3c bf 2a 63 bc 0d 57 62 bc
       -0.05177973 0.02415591 -0.013865172 -0.0138147
0000e0 98 5e c1 3c 9b 40 3a bd 49 bd a7 bc e0 15 10 bc
       0.023604676 -0.04547177 -0.020476 -0.008794278
0000f0 7c 41 ae 3c 0f ae 8a bb c6 eb 75 3c e6 ba 11 3c
       0.02127146 -0.004232175 0.015009826 0.008894658
000100 f9 c1 39 bd 41 d1 03 3d 36 5e 40 bb 4e b0 2a bd
       -0.045351002 0.032181982 -0.002935303 -0.041672044
000110 17 a2 55 bd 76 09 90 bc ef c6 61 bc 64 d3 99 bc
       -0.052156534 -0.017582636 -0.01378034 -0.018777557
000120 a3 e7 2c bd c1 c9 08 bd d5 bf 1b 3d 1c ad 91 3b
       -0.042213093 -0.033395533 0.038024742 0.004445685
000130 8e bd 23 3d 30 54 80 3c bd 7e c6 bc 2c 88 ad 3c
       0.039975695 0.015665144 -0.024230355 0.021183096
000140 4c 1c 9d 3b a5 65 13 bd 50 22 69 3c c7 08 0b bd
       0.004794633 -0.035985608 0.014229372 -0.033943918
000150 c0 a7 10 3d c5 01 e1 3c 6e a4 a4 3c 82 9a 6c 3b
       0.03531623 0.027466664 0.020097937 0.0036102836
000160 37 07 2d 3c 42 bc ca 3c 96 4b 03 bc 4e 91 2b bd
       0.010560802 0.024747971 -0.008013627 -0.04188662
000170 71 8f 14 bd d6 65 04 bd 4c 33 3c bd d1 ae 38 3d
       -0.03626961 -0.03232368 -0.045947358 0.045088593
000180 7f 5c 51 bd 04 7d ac 3b a9 01 b0 bc 3c fa 80 bc
       -0.0511136 0.0052639265 -0.021485167 -0.015744321
000190 7f 5b 49 bc ff 3f 04 3d d9 34 b4 bc 2c f3 3c ba
       -0.012289881 0.032287594 -0.021997856 -0.00072078663
0001a0 8e c2 38 bd 5b 38 9f bc f4 b8 05 bd 06 a6 0c 3d
       -0.045107417 -0.019436052 -0.03264709 0.03433802
0001b0 b1 09 02 3d 84 6b 94 bb 43 6f ad 3c 20 0e ef 3c
       0.031747524 -0.0045294184 0.021171218 0.02918154
0001c0 c7 19 b5 bc 30 fc 3e bc ee 0e 01 bd 37 de 18 bd
       -0.022107018 -0.011656806 -0.03150838 -0.037321296
0001d0 2d 73 43 bd 83 8f 22 bd 91 ce 58 bb d1 8e 4b bd
       -0.047717262 -0.039687645 -0.0033082108 -0.049696747
0001e0 83 36 2b 3c fc 3f b4 3c 2c ac 82 3c f2 d3 03 bc
       0.010450008 0.022003166 0.015951239 -0.008046137
0001f0 47 e9 ed bc 1f e2 78 bc e6 77 30 3d 2c a6 6b bc
       -0.0290419 -0.01519063 0.043083094 -0.01438288
000200 8b 3b 4f bc 80 1a 20 bd f3 d6 3a 3d 54 6d 37 bc
       -0.0126484735 -0.039087772 0.045615148 -0.011195499
000210 4a 7a c9 ba bd 8a 20 3d d1 bf 6f bc 63 6b b3 3c
       -0.0015371528 0.03919481 -0.014633135 0.021901792
000220 8c 2a c2 3c 53 69 2c 3d e0 56 0a bc c9 54 1c 3b
       0.023701929 0.042092633 -0.008443564 0.0023854247
000230 e3 6d 03 bd 0b c8 2c bd 37 79 fa bc 38 b5 12 3d
       -0.032087218 -0.042182963 -0.030575378 0.035817355
000240 49 cd 52 bd 13 2c 0c 3d 19 08 b0 3c 8d ff f8 bc
       -0.051465306 0.03422172 0.021488236 -0.030395294
000250 f4 5c 2d bd 71 37 1d 3d ce 8a 00 bd 73 01 ce bb
       -0.042324975 0.03838295 -0.031382374 -0.006286794
000260 6e 91 a1 3c 1c ea c6 3c 73 21 8f bc 63 9c e9 3b
       0.019722667 0.024281554 -0.017472005 0.0071292385
000270 04 77 fe 3c 86 86 54 bd 64 1a 1b bd b7 8e fa bb
       0.03106261 -0.051886104 -0.037866965 -0.0076464075
000280 ce ce 19 bd 8d 11 d9 bb 4c c0 ec bc 02 43 95 3c
       -0.03755074 -0.0066244067 -0.028900288 0.018220428
000290 d1 ff 09 3d f3 3d d0 3c 06 6f ae bc 26 38 12 3d
       0.03369123 0.025420165 -0.021293174 0.03569808
0002a0 7e 12 69 bc 02 2c 65 3c d5 aa 1b bd f3 b0 35 bd
       -0.0142256 0.013987543 -0.038004715 -0.044358205
0002b0 57 89 97 3b 52 1c 13 3d 6c e5 01 bd e4 1b fd 3a
       0.0046245265 0.03591568 -0.031712934 0.001931068
0002c0 69 85 3d bd 61 b7 6e bb 60 ab 12 bd 05 03 d4 3c
       -0.046269808 -0.003642522 -0.035807967 0.025880346
0002d0 ca 45 a9 bb e2 34 57 bc d8 b9 8b 3c 0d e7 cc 3c
       -0.00516579 -0.013135167 0.01705639 0.025012517
0002e0 f3 e4 60 bd af 3a a3 3c cb 2e 9d 3c 5b 07 b6 3c
       -0.054905843 0.019925443 0.019187352 0.022220304
0002f0 6b f8 5b bd bd e0 2e 3d 95 19 8e bc 81 ec 0a bc
       -0.053703707 0.042694796 -0.017346183 -0.0084792385
000300 8c 71 3b bc 23 49 88 3c 14 3e 09 3b 59 1b 3b 3c
       -0.011440646 0.016636437 0.0020941542 0.011420094
000310 76 f2 16 bd 52 e7 9c bc ba 36 bd 3c f5 d9 26 3d
       -0.036852323 -0.01915327 0.023097385 0.040735204
000320 32 37 9f 3c 36 85 99 3c f7 be 16 bd 06 62 12 3c
       0.019435499 0.018740278 -0.036803212 0.008934503
000330 e2 b6 46 bd c5 fe 21 bd d5 4e be bc b5 68 2c 3d
       -0.048514254 -0.039549608 -0.02323095 0.042092044
000340 d1 fa 1a 3c b9 01 ea 3b 71 61 1d bd 7f d1 44 bd
       0.009459213 0.0071413186 -0.038423005 -0.048051354
000350 16 2e 25 3d 3b 9c 98 bc d7 71 6d bc 4d 7d 79 bc
       0.040327154 -0.018629184 -0.014492474 -0.015227628
000360 71 29 85 3c 46 de 50 bd e0 4d 64 3c bd c4 30 3d
       0.016255112 -0.050993226 0.0139345825 0.043156374
000370 ba a2 2c 3d d8 4a 13 bd d3 b6 88 bc 9c b4 23 bd
       0.042147376 -0.03596005 -0.01668874 -0.039967164
000380 98 54 c3 3c 9c a6 05 bb ef ca 28 bd e0 2f 4c bd
       0.023844048 -0.0020393496 -0.041209158 -0.049850345
000390 30 14 1b 3c 5d 6f 03 bd 41 38 c0 ba e2 ec f3 bc
       0.009465262 -0.032088626 -0.0014665202 -0.02977604
0003a0 06 e7 95 3c e9 ea 13 bc a1 11 b7 3c 8d 53 1b 3d
       0.018298637 -0.009028175 0.022347273 0.037921477
0003b0 84 61 19 bd b7 09 37 3d 7c 84 9c bc a0 ed 5f bc
       -0.037446514 0.044687 -0.019106142 -0.013667494
0003c0 72 7a ee bc 52 28 15 bd 32 80 3e 3c 51 b3 3a 3c
       -0.02911112 -0.036415406 0.011627244 0.011395291
0003d0 a3 3b bf 3c 38 10 65 bd 54 fb d8 bb cb 35 53 bc
       0.023343867 -0.05592367 -0.0066217575 -0.012891243
0003e0 08 1b e3 3c 60 52 20 3d 40 db dd bc ee 4c 70 3c
       0.02772285 0.03914106 -0.027082086 0.014666779
0003f0 6f fb 6c bc f2 0c 2a bd ea 06 20 bc 71 84 17 bc
       -0.014464243 -0.04151625 -0.009767273 -0.009247885

column1.3.bias f4 [16]
000000 40 95 d4 3b d8 fb 7e 3c 0a 1e 21 3d f9 80 72 bb
       0.0064875185 0.015562974 0.039335288 -0.0037003143
000010 25 3a 90 3a 8a b0 95 bb 1a 09 15 bd 49 37 d1 3c
       0.0011003657 -0.0045681642 -0.036385633 0.025539057
000020 50 8b 7c bb 16 db 76 bc 0e b7 c3 bc 42 fa 0d 3d
       -0.0038535185 -0.015066883 -0.023890998 0.034662493
000030 3c e5 dc bc b3 00 32 bd d0 2f 52 3c 87 89 d2 bc
       -0.026964776 -0.043457698 0.012828782 -0.025700344

column1.6.weight f4 [32, 16, 7, 7]
000000 5f fe 1b bd 73 c4 1c bd 94 4e 52 3b 02 a2 04 bd
       -0.038084384 -0.038273286 0.0032090293 -0.032381065
000010 4b ee b3 bc 46 d8 b3 3c ca f9 ed bc 7a c8 10 bd
       -0.021964213 0.021953713 -0.029049773 -0.03534744
000020 58 99 13 bd 7c a5 22 3c f1 df 5f 3c 18 ca 71 bc
       -0.036034912 0.00992715 0.013664232 -0.014757656
000030 9e b5 10 bd 5a 63 f6 bc 01 a1 6a 3c 2d 76 e6 bb
       -0.035329454 -0.030076671 0.014320613 -0.0070331306
000040 87 ca 23 bd 39 af 6e 3c 1d 3d 17 bc 3e 10 d6 3c
       -0.039988067 0.0145681435 -0.009230879 0.026130792
000050 eb 73 14 ba e3 ee da ba 23 0a fc bc 1a 8b e3 bc
       -0.0005663025 -0.0016703274 -0.030766552 -0.02777629
000060 8e c7 79 bc c4 5c 6f 3c 2f 98 a2 3c 76 ad f1 3a
       -0.015245331 0.014609519 0.019847957 0.0018438536
000070 cc ee 90 3c 33 27 40 bc 95 f2 d5 3c ca 7d 18 bd
       0.017691992 -0.011728096 0.026116649 -0.037229337
000080 d1 dc f3 bc 69 d8 5c bb 7b fe 03 bd ef ab 57 3c
       -0.02976838 -0.0033698326 -0.032225113 0.013163551
000090 53 a4 18 bb ee ed fa 3b c2 97 14 3c 8e 50 12 bd
       -0.0023291304 0.007657758 0.009069385 -0.035721354
0000a0 59 9a 03 bc 2c 9b e6 3c bf 51 de bb 18 0c 08 3c
       -0.008032405 0.028150164 -0.0067846472 0.008303665
0000b0 9a 19 a9 bc 82 31 00 bd c3 10 09 bd 3f b1 88 bc
       -0.02064209 -0.031297214 -0.03346325 -0.01668608
0000c0 8f 48 d4 bc f1 81 73 3c e6 00 19 bd 99 fe 77 bc
       -0.025913505 0.014862523 -0.037354372 -0.015136384
0000d0 15 86 05 3d 13 ea b7 3c 2f 65 40 ba 0e 7f ef 3c
       0.032598574 0.022450482 -0.0007339296 0.02923539
0000e0 31 12 82 bc cb 25 a9 3c 72 6a 13 bd 7c 44 14 bd
       -0.015877815 0.020647904 -0.035990186 -0.036198124
0000f0 a9 5d 15 3b cc cb 17 bc 80 a3 86 bc 3c ea a5 bc
       0.0022791422 -0.009264898 -0.016435385 -0.020253293
000100 9a eb 7f 3c c0 22 0b bd 7c 62 2b 3c 2d f2 6c 3c
       0.015620137 -0.033968687 0.010460492 0.014462036
000110 43 93 8d 3a cb 33 7a bc e4 38 e1 3c f2 d8 86 bc
       0.0010801334 -0.0152711375 0.027492948 -0.01646087
000120 06 82 de bc 86 fc a1 3c c1 32 c6 bc 8f 61 d7 3b
       -0.02716161 0.019773733 -0.024194123 0.006572909
000130 dc 43 7c bb 71 f0 98 bc ad 33 27 bc 9b e5 20 b9
       -0.0038492596 -0.018669339 -0.010205192 -0.00015344324
000140 ab 9b af 3b 29 72 ad 3c cb ed 0c 3d 6e f8 ad 3c
       0.0053591332 0.0211726 0.034406465 0.021236625
000150 65 d3 71 3c 37 1b fe 3c 3d f9 5e 3c b5 c7 ed 3c
       0.014759873 0.031018836 0.013609228 0.029025892
000160 d1 aa 0d bd ca 4b 10 3d 64 8b 15 3d 1f 48 c8 bb
       -0.03458673 0.035228528 0.036509886 -0.006112113
000170 4f d9 ce bc 4b 23 d0 3c 4b f5 ab 3c 18 b7 8c bc
       -0.025250105 0.025407454 0.020990988 -0.01717715
000180 25 d5 3a 3c f6 c7 0d 3d cc 14 f4 bc 03 06 9b 3b
       0.011403357 0.034614526 -0.029795073 0.0047309413
000190 34 2e 89 bc 1d b4 c2 bc 1b 4f 76 bc 5f 13 61 b9
       -0.016745664 -0.023767525 -0.015033509 -0.00021464888
0001a0 40 68 ef bc bd e5 b3 bc 8f e0 cf 3c ca 8a 28 bc
       -0.029224515 -0.021960134 0.025375633 -0.010286996
0001b0 30 66 28 bd 25 b6 b5 bc 75 01 0d bd 0a 7d be bc
       -0.04111308 -0.02218158 -0.034425218 -0.023252983
0001c0 3f 6b cb ba 7e 6a 9b 3c 0c 39 c6 3b 7e f8 d4 bc
       -0.0015519633 0.018971678 0.006049281 -0.025997397
0001d0 bc 63 b0 bc 03 22 ad bc fc 79 94 3c c5 f4 90 bb
       -0.021531932 -0.021134382 0.018124573 -0.00442371
0001e0 ac 9b b9 3c 71 17 4e bc a4 08 db bc 34 95 47 bb
       0.022657238 -0.012578831 -0.026737519 -0.0030453922
0001f0 e7 21 99 bc 53 ab a1 bc f1 97 05 bd 23 eb c4 bb
       -0.018692924 -0.019735014 -0.032615606 -0.006009476
000200 bb a7 12 3c ea 5e d7 bc 7f f2 19 bb 22 e0 1d bd
       0.008951123 -0.026290376 -0.0023490486 -0.038543828
000210 5b 07 8c bc 49 a2 9e 3c 97 11 1d bd 60 c2 1f bd
       -0.017093351 0.019364493 -0.038346853 -0.03900373
000220 2a da 92 bb 69 cd ec 3c 6b 92 6d 3c d0 5b 63 bc
       -0.0044815736 0.028906541 0.014500241 -0.01387687
000230 ca a8 7f 3c da ed dc 3c 4b ae 84 bc fe cb b3 3c
       0.015604207 0.026968885 -0.01619639 0.021947857
000240 22 35 8e 3c c2 27 48 bb 22 36 99 3c 96 6a 99 ba
       0.01735932 -0.0030541276 0.01870257 -0.0011704739
000250 99 97 a8 bc 36 40 ef bc ac 04 13 bd 2f 0d 9a bc
       -0.0205801 -0.029205423 -0.035893127 -0.018805115
000260 04 82 2b 3c 2a c8 1d bd a7 b4 48 bb 34 f0 9c 3b
       0.01046801 -0.03852097 -0.0030625255 0.0047893766
000270 b0 e7 83 3b 11 48 4a bb c4 8f d7 bb 46 ef c7 3c
       0.004025422 -0.0030865709 -0.0065784175 0.024406087
000280 08 98 b2 3c c3 ff bd bc 82 e8 a4 3c 39 51 0f bd
       0.02180101 -0.023193246 0.0201304 -0.03498957
000290 83 59 ee bc 8e 3d fb bc 75 4d 06 bd 6a 99 f0 3c
       -0.029095417 -0.030669 -0.032788713 0.029370029
0002a0 66 f3 a2 39 14 e0 c3 bc 38 ca 11 3c b5 0c 0a bc
       0.00031080394 -0.02391056 0.00889831 -0.008425881
0002b0 af b6 b9 bc bc a1 04 bd a4 93 04 bd 46 3d 11 bd
       -0.022670118 -0.032380804 -0.032367364 -0.035458826
0002c0 08 53 1a 3c f1 c6 b7 bc 39 6c 94 bc f1 07 f9 3c
       0.00941921 -0.02243373 -0.01811801 0.030399295
0002d0 e7 30 ff bc 11 3a 14 bd 19 12 60 3c 59 8c f0 bb
       -0.031151248 -0.03618819 0.01367619 -0.0073409495
0002e0 d8 cd 54 3c 3d c8 91 3c 93 d5 b1 bc 53 1b 14 bb
       0.01298853 0.017795676 -0.021708285 -0.0022599294
0002f0 9b e5 c6 bb ec 03 91 3c f7 09 12 bd 3a ff 1a bd
       -0.0060698516 0.017702065 -0.035654034 -0.03784106
000300 95 70 98 bb 6b 66 c2 3c e8 a2 6b 3c d4 20 28 bb
       -0.0046520927 0.023730477 0.014382102 -0.0025654333
000310 db 6f 01 bd 91 02 86 bc 56 17 fe bc bb 13 23 bc
       -0.031600814 -0.016358646 -0.031016987 -0.009953435
000320 63 00 31 3c e2 7e 54 bc 8d 78 12 3c 95 c4 c7 bc
       0.010803315 -0.012969704 0.008939874 -0.02438573
000330 24 db 07 bd c1 8e 75 3c 45 a5 c5 bb e2 a6 0c bd
       -0.033167973 0.014987648 -0.0060316646 -0.03433884
000340 dd 2f a7 bc 8f 28 7d bc 87 b6 5d bb 8c eb b8 3a
       -0.020408565 -0.015451564 -0.0033830719 0.0014108284
000350 bb c6 f7 ba a5 eb 0c bd b3 d5 0d bd f8 75 8e bc
       -0.0018903831 -0.034404416 -0.034627628 -0.017390236
000360 a2 ee d6 3c 7f 31 1b bc 1d 7b cd 3b d0 5a 0c 3c
       0.026236836 -0.00947225 0.0062707798 0.008566573
000370 8d 30 a1 bc 39 5f f3 bc f7 a3 d8 3a bc a0 b8 3c
       -0.019676471 -0.029708492 0.0016528358 0.022537582
000380 05 14 10 bd 4c 40 c0 bc 5c 31 ba bc f2 b4 56 bc
       -0.035175342 -0.02346816 -0.022728615 -0.013104664
000390 0e b4 65 bc 3f 47 10 3c 8a 2d f6 3c c6 fd ab 3c
       -0.014019979 0.008806049 0.030051012 0.020995032
0003a0 a7 94 e5 3b 2e dc d6 bb e9 7d ff ba ce 35 e0 3c
       0.007006246 -0.006557009 -0.001949248 0.027369406
0003b0 bd 70 12 bd 19 d3 03 3c 5b 47 2d 3c 56 e7 ec bc
       -0.035752047 0.008045935 0.0105760945 -0.028918903
0003c0 82 60 0d bc d2 40 47 3c d0 fe 34 bb 47 e4 1a bd
       -0.008628966 0.01216145 -0.00276177 -0.03781536
0003d0 9c dc 91 3c da 97 c8 3c 30 63 96 bc 3a 7c 90 b9
       0.01780539 0.024486471 -0.018357843 -0.00027558376
0003e0 2b c1 8b 3c 37 54 ab bc 33 9b 77 bb 99 01 fb bc
       0.017059883 -0.02091418 -0.0037781715 -0.03064041
0003f0 18 95 b7 bc 6d 27 14 bd 6f 1f d4 bc 03 2d b5 bc
       -0.02240996 -0.03617041 -0.025893895 -0.02211619

column1.6.bias f4 [32]
000000 77 1f c8 3b 3a 30 32 3c 63 15 22 3d 00 73 3e bb
       0.0061072665 0.010875756 0.039571177 -0.0029060245
000010 68 08 8f 3b ec df c7 bc b0 cb f8 bc f3 d9 1b bd
       0.004365016 -0.024398766 -0.030370563 -0.03804965
000020 26 3d 24 3d 44 2f d8 bc 9c 65 ce ba 9c 35 0b bd
       0.04009738 -0.026389726 -0.0015746835 -0.033986673
000030 2a ee 82 bb 65 87 0e 3d 4d 45 28 3c a1 c1 dd bc
       -0.0039956765 0.03479709 0.010270429 -0.027069869
000040 e8 ed ba 3b 10 e6 89 3c 1c 70 4c 3c 49 33 d5 3c
       0.00570463 0.016833335 0.012477901 0.026025431
000050 68 49 2b bc 6b ef cc 3c fe 8b 0c bd 29 18 24 bd
       -0.010454513 0.025016507 -0.034313194 -0.040062103
000060 0a 40 84 3c e7 14 81 3c 83 06 18 3c d4 54 03 3c
       0.016143817 0.015757037 0.009278896 0.00801583
000070 66 b3 06 bd fc 90 5a 3c 67 6f a7 3c 73 5b 05 3c
       -0.03288593 0.013340231 0.020438863 0.008139479

column1.8.weight f4 [16, 32, 7, 7]
000000 b2 ad 58 3c a6 37 2d bc 31 1b ef ba 28 d2 ae 3b
       0.013225006 -0.01057235 -0.0018242357 0.005335111
000010 e5 81 55 3b 2c 3c 25 3c 1f 4f f3 3b e6 04 be 3c
       0.0032578644 0.010085147 0.0074252035 0.023195695
000020 0b c2 95 3c 87 1b 55 bc 7a 6b e9 3b e5 51 a8 39
       0.018281003 -0.013007051 0.007123408 0.00032104473
000030 7d ec 6a 3b 9e b1 58 3c 41 b6 c2 3b 67 f8 bc 3c
       0.0035846524 0.013225941 0.0059421365 0.023067666
000040 c7 72 04 3a c8 da 2f 3c 52 9e 7d bc 21 9a ac 3c
       0.00050525035 0.010733314 -0.015479641 0.021069588
000050 51 de 03 bb 8d 8c c0 3c e3 1a 56 bc 0e a2 0c 3c
       -0.0020121525 0.02350452 -0.013067934 0.008583559
000060 2d a9 3f bc 9c 1e 33 3c 01 cc 08 bc be 56 b6 3b
       -0.0116980495 0.010932591 -0.00834942 0.0055645397
000070 00 95 ff bb da d4 f2 3c 29 26 bf 3c db 87 ab 3c
       -0.0077997446 0.029642511 0.023333626 0.020938804
000080 e6 fb 35 bc 90 a6 96 bb db 4a cb 3a 6f 0b 8e bc
       -0.011107421 -0.0045974925 0.001550998 -0.017339436
000090 ec ac 62 bc 57 cb ea 3b 00 8d 34 bb e6 88 1e 3c
       -0.013835173 0.0071653533 -0.0027549863 0.009676194
0000a0 b8 e4 b1 3c cb 9b 75 3c 95 3c 98 3c 49 83 65 3c
       0.021715507 0.014990757 0.018583575 0.014008352
0000b0 61 79 a0 3c a4 c1 b1 3b bd 2c d9 3c ac bc 71 bc
       0.019589128 0.005424695 0.02651059 -0.014754456
0000c0 ab 09 55 3b 41 cc e6 bb 06 e9 fe 3c 6d 10 5c bc
       0.0032506983 -0.007043392 0.031116974 -0.013431651
0000d0 84 f8 47 bc 89 fe d3 3b 46 c6 a0 3b 04 82 9d 3c
       -0.012205247 0.006469552 0.0049064485 0.019227035
0000e0 5a 03 01 bc 4f 63 be 3c 5c b6 44 bc c3 cb 2f bc
       -0.007874334 0.023240713 -0.0120063685 -0.010729733
0000f0 71 5f c6 3c e4 d9 9c bc d5 99 83 3c f9 ee f5 3c
       0.024215432 -0.019146867 0.016064564 0.030021178
000100 fa 19 6f bb f8 ad 95 bc 83 49 ba 3c ff 09 c6 3b
       -0.003648399 -0.018271431 0.022740131 0.006043672
000110 d8 bb ff 3c e2 ac e9 3c 7d 21 af bb fe 2d 64 bc
       0.0312175 0.02852482 -0.0053445683 -0.013926981
000120 0e 0d a8 bb 43 d3 c1 3c e7 0a 63 bc 61 3d 87 3c
       -0.0051285094 0.023660308 -0.01385758 0.01650876
000130 fb 32 42 bc 72 0a c6 3b 85 4f d1 3c b5 1e ac 3a
       -0.011852975 0.0060437256 0.025550613 0.001313171
000140 e7 5e 9b 3a 61 90 81 3b 1e 70 e4 3c d7 42 d5 bb
       0.0011853845 0.003953979 0.027885493 -0.006508212
000150 ce 18 fc 3c 8e ad fe 3c 46 e5 d2 ba b0 2a 06 3c
       0.030773547 0.031088617 -0.0016090057 0.008188888
000160 eb a3 aa 3c 5e 67 69 bc 94 cf 22 bb 8f d6 84 3c
       0.020830115 -0.014245836 -0.0024842964 0.01621559
000170 09 dd 95 3c 94 96 d0 3c eb f3 5d 3c fc 48 a5 3c
       0.018293874 0.025462426 0.013546924 0.020176403
000180 9c a3 7c 3c a9 cd 39 3b 4a f0 bf 3c d6 f1 3c 3c
       0.015419867 0.0028351343 0.023430008 0.011532268
000190 cb 8c b5 3c a7 3e 05 3c 19 17 4e bc 21 c5 6d bc
       0.022161862 0.008132613 -0.012578749 -0.014512331
0001a0 31 5b 8e 3b 17 f4 b5 3b 07 e2 42 bc fd 6b a8 3c
       0.004344367 0.0055527794 -0.011894709 0.020559305
0001b0 fd 3c 08 3c 05 8e 05 3c 78 25 a9 bc 17 ee 99 3c
       0.008315322 0.008151536 -0.02064775 0.018790288
0001c0 45 17 28 3b f6 ea 84 bc 13 c2 81 bb 81 4a ba 3c
       0.0025648635 -0.01622532 -0.003959903 0.022740604
0001d0 9e aa c7 3c 8c ff 88 3c b5 40 0d bc 7f 6e 98 3c
       0.024373349 0.016723417 -0.008621384 0.018607376
0001e0 4c 82 91 3c 94 79 88 bb aa b0 88 3c ab 39 66 3c
       0.017762326 -0.004164884 0.016685802 0.014051835
0001f0 03 ab 80 3c 63 45 dd bb 93 2e 21 ba a0 59 a6 bc
       0.015706545 -0.0067526563 -0.00061486027 -0.020306408
000200 f8 53 5e 3c 83 21 1e bc be 1c 32 3c cb 69 99 3c
       0.013569824 -0.0096515445 0.0108711105 0.018727204
000210 69 db 18 bc 80 71 8c bc f0 a2 07 bc a1 90 c7 bc
       -0.009329655 -0.017143965 -0.008278593 -0.024360957
000220 b1 0b f8 3b 75 e6 8b bb d8 5f ae bb 08 dd 1f 3c
       0.007569753 -0.004269416 -0.005321484 0.009757288
000230 94 b2 50 bc 19 20 12 3c 66 1e da 3b 78 4b b8 bc
       -0.012737889 0.0089187855 0.006656456 -0.022496924
000240 af 6f 95 3a d7 de 25 bc 52 2c 3a bb 78 bc c1 bb
       0.0011401082 -0.01012393 -0.0028407765 -0.00591236
000250 4e 6e 03 bc 01 8b ff 3b 9c 58 06 3c 0f 29 8b bc
       -0.008021904 0.007798553 0.008199837 -0.016987352
000260 99 28 81 bc 0b 22 0e bc a7 fa 0c bc f6 f8 26 3c
       -0.015766429 -0.008675109 -0.008604682 0.010191193
000270 3a b6 4f 3c 2a cb 45 bb 2e c6 2c 3c f8 e4 e4 3c
       0.012677724 -0.003018091 0.010545297 0.027941212
000280 02 68 2d bc f3 da 1a bc 38 d1 96 bc 67 cb 0f 3c
       -0.010583879 -0.009451616 -0.01841031 0.008776522
000290 09 01 0d bc f8 8b d3 3c 74 30 56 bc 21 e9 c9 3c
       -0.008606204 0.025823578 -0.013073076 0.024647297
0002a0 4d 7f 90 3c 90 e1 96 3c 93 18 b9 3c e5 55 16 bc
       0.017638827 0.018418103 0.022594726 -0.009175752
0002b0 fb 0b fd 3c c5 cb c8 3c 92 71 93 3b 38 0e b1 bb
       0.030889502 0.024511227 0.0044996226 -0.0054033063
0002c0 8c 89 ce 3b 96 a5 04 bb b6 4a a2 3b 22 0b 15 3c
       0.006303018 -0.0020240298 0.004952754 0.009096893
0002d0 ff c7 8a 3a e7 6e cf 3c 21 9e 9a bb 34 d0 e1 3c
       0.0010588168 0.025321437 -0.0047185575 0.0275651
0002e0 43 b3 9a 3c a3 1e be 3c 04 92 f4 bb cd f6 5d bc
       0.018884307 0.023207968 -0.0074636955 -0.013547611
0002f0 d7 79 73 3c f0 49 2f bc 33 97 f8 3c 19 48 ef bb
       0.014860592 -0.01069878 0.030345535 -0.007302296
000300 62 d1 8c 3c a8 b8 95 3c b1 fd 03 3c 0f ae 7d 3c
       0.017189685 0.018276528 0.00805609 0.015483393
000310 ac 84 86 bc 10 fd a4 bc f0 29 8e 3c 7f 8d a7 3c
       -0.016420685 -0.0201402 0.017353982 0.020453213
000320 4d 38 9a 3c 69 3d 97 3c 42 52 9d 3c 4e ee 16 bc
       0.018825674 0.0184619 0.019204263 -0.00921209
000330 b5 79 ab 3c 99 c9 34 bc d3 61 98 bc 8f c3 9c bb
       0.020932058 -0.011034393 -0.018601334 -0.0047840546
000340 f6 62 b7 3a e9 37 ce 3b 05 5b a2 bc 7c 75 4c 3c
       0.0013991285 0.006293286 -0.019818792 0.012479182
000350 85 db ad 3c cb 5e 5b bb a0 8a 2a bc c2 8d aa 3c
       0.02122284 -0.003347325 -0.010409027 0.020819549
000360 43 c6 62 3c 74 27 a9 bc 5a 7b c3 bc cb 19 40 3c
       0.013841215 -0.020648696 -0.02386253 0.0117248995
000370 df 19 77 bc 3a 9f e9 bb 16 53 86 bb 32 03 f2 3b
       -0.015081852 -0.007129577 -0.00409926 0.007385635
000380 4d 58 ad 3c bb 71 35 3a e1 19 3d bc 11 be 0f bc
       0.02116027 0.0006921549 -0.011541815 -0.008773343
000390 f9 37 7b bc 34 d6 58 bc ac ee 63 bc 22 6b 24 3c
       -0.015333169 -0.013234664 -0.013911884 0.010035308
0003a0 13 06 70 bc b3 8c 6b bc 75 47 f1 3b 3d ac a9 ba
       -0.014649886 -0.014376807 0.0073632547 -0.0012945008
0003b0 ed 4c 4f 3c fa 53 94 bb 3c f4 38 3b ce 49 78 bc
       0.012652618 -0.0045266123 0.0028221747 -0.015154315
0003c0 a3 94 61 3c 13 e9 0d 3b 19 fd 7f 3c 0b c2 83 bc
       0.013768348 0.0021653816 0.015624308 -0.016083738
0003d0 c6 78 06 3c 83 b5 e3 3c d3 ca 20 3c 4d f4 b1 3c
       0.008207506 0.027796512 0.009813982 0.021722937
0003e0 f0 e6 31 bc 83 b2 3e bb 5f 14 c2 3c df 8a aa 3c
       -0.010858282 -0.00290981 0.023691354 0.020818172
0003f0 2e ce d6 3c 57 d1 3e bc 5a 6e bb 3c 34 cf 4c bc
       0.026221361 -0.01164659 0.022879768 -0.012500573

column1.8.bias f4 [16]
000000 e4 95 b7 3c ce 90 f2 bc 55 6c a6 bc 7f 9b 2f 3c
       0.02241034 -0.029610064 -0.020315329 0.0107182255
000010 6e d2 45 bc 87 68 84 bc eb be 9b bc c3 be 60 bb
       -0.012074096 -0.016163124 -0.019011935 -0.003429339
000020 fc 87 0d bb 85 e1 d3 bc 39 1e 85 bc ea f4 a8 bc
       -0.0021595946 -0.025864372 -0.016249763 -0.020624597
000030 64 e9 f1 3b 28 39 f8 bc 01 cc 9f bc 2b c9 97 bc
       0.0073825587 -0.030300692 -0.019506456 -0.018528542

column1.10.weight f4 [8, 16, 7, 7]
000000 5b 09 94 bc 93 af 6d bc fb 96 f5 3c ca 5a b9 3c
       -0.018070867 -0.014507192 0.02997922 0.0226263
000010 53 4e 01 bd 82 09 35 3a 2a 8d 7a bc 45 f6 97 3c
       -0.031568836 0.0006906019 -0.015292445 0.018550048
000020 dd d3 4d bc 83 2c 7c bc 3b b1 78 3c fc ac a8 3c
       -0.012562719 -0.015391472 0.015178974 0.020590298
000030 2c e8 8e bc 35 9f 77 ba a1 d0 82 bc 2b d8 59 bc
       -0.017444693 -0.0009446026 -0.015968623 -0.013296167
000040 dd 39 2e 3c 4c b2 49 bc c3 b8 94 bb 3b 26 00 3d
       0.010633913 -0.012310576 -0.004538627 0.03128646
000050 11 29 be 3c ee 5a c9 bc 6b e5 71 3c 53 c1 01 3d
       0.023212941 -0.024579491 0.01476417 0.03167851
000060 c2 17 02 3d 61 0c 00 bc 4d 71 16 3d b1 5d 5f 3c
       0.03176094 -0.007815451 0.036729146 0.013633178
000070 98 bd 9e 3b b2 fa b1 bc db 18 f1 3c 3e 0a 72 bc
       0.0048443787 -0.021725986 0.029430797 -0.01477295
000080 e5 b0 ac 3c 95 3d b5 3c f9 1f 98 bb 54 51 fb 3c
       0.021080444 0.022124091 -0.0046424833 0.030678429
000090 f5 9b 80 bc 6b 6b 1e 3c b5 71 90 3c d8 6d 06 3d
       -0.015699366 0.009669165 0.017632345 0.0328196
0000a0 eb 35 0e 3d 90 56 51 bc 07 1c 88 3c 9d 59 29 3c
       0.03471939 -0.012776986 0.016614927 0.010336307
0000b0 d2 60 9c 3c 36 37 e4 3c 7f 21 0b bd 35 7a 25 bc
       0.019089136 0.027858358 -0.03396749 -0.010099937
0000c0 7e fd 04 bd 4c 02 40 bc 59 85 cf bc 60 78 f3 3c
       -0.03246831 -0.011719298 -0.02533214 0.029720485
0000d0 9b b1 1f 3d 62 7a ce bb 06 b4 d6 3b 15 61 e7 bc
       0.038987737 -0.0063012103 0.006552222 -0.028244535
0000e0 f5 c4 b1 bc 75 d1 ba 3c 95 50 e9 bc a1 5b bf 3c
       -0.021700362 0.022804955 -0.028480807 0.023359122
0000f0 35 81 db 3c 5f 4f 3c 3c e3 ec 9f 3b ca 0c d6 bc
       0.02679501 0.011493533 0.004880534 -0.026129145
000100 84 22 1a 3c 2f 15 be bc 2f 31 52 bc 49 a0 24 3d
       0.009407643 -0.02320346 -0.012829109 0.040191922
000110 bb ce d6 3c 25 b3 26 ba c6 d3 3a bc 26 83 b8 3c
       0.026221624 -0.0006359092 -0.01140303 0.022523474
000120 2b e4 fb 3c 94 22 23 3c e1 c0 fc 3c 63 19 09 3d
       0.030748447 0.009956975 0.03085369 0.033471476
000130 53 45 70 3b 21 41 19 3d 48 94 b9 bc 21 ef ad bc
       0.0036662414 0.037415627 -0.022653714 -0.02123219
000140 c4 4a 1d 3c 3c 66 a5 3c fe 64 9b 3c 44 08 26 3c
       0.009600345 0.02019035 0.018969055 0.010133807
000150 e2 26 37 bc d1 45 1a 3b eb 94 31 3c 26 4c c2 bc
       -0.011178704 0.002354015 0.0108387275 -0.023717951
000160 2e 1a 86 bc 31 17 22 3d 08 fa df bc 2c 84 c6 3a
       -0.016369905 0.0395729 -0.027340904 0.0015145591
000170 58 01 71 3c 30 39 06 3c c5 e1 e7 bc ad df db ba
       0.014709793 0.0081923455 -0.028305897 -0.0016775035
000180 6b 6b 7c bc 19 8a 80 bc 68 fd 1f bc 39 f3 a0 3c
       -0.01540647 -0.01569085 -0.009765007 0.019647228
000190 e2 24 e0 bc 1c 4c 0d 3b e5 b5 05 3d 8d 91 7c 3c
       -0.027361337 0.0021560257 0.03264417 0.015415561
0001a0 a8 7e 14 bd de 23 0d bd 98 41 9d 3c 36 8c ea bb
       -0.0362536 -0.034458034 0.019196317 -0.0071578277
0001b0 fd 73 e9 3a 62 f0 f1 3c af ac 66 3c ef bb 90 3c
       0.0017811056 0.029533569 0.014079257 0.017667739
0001c0 d5 8f d1 bc 11 c9 a8 3c a2 b6 eb 3a 98 ad 9f bc
       -0.02558128 0.020603688 0.0017983506 -0.019491956
0001d0 ba 27 52 bc 16 a4 71 3c 00 95 1e 3b 4b 97 f4 b9
       -0.012826854 0.014748594 0.0024197698 -0.0004665203
0001e0 88 a3 99 bc 54 08 65 bc 28 e2 c1 bc 37 e8 92 3a
       -0.018754736 -0.013979036 -0.02366741 0.0011208121
0001f0 86 41 fe bc 1e 16 d5 3b 97 9b df bc 52 17 43 3c
       -0.031037103 0.0065028807 -0.02729587 0.011907415
000200 39 66 99 bc a5 52 3c bc b5 dd cc 3c 86 02 ad 3c
       -0.018725501 -0.011494313 0.025008062 0.021119367
000210 d8 c1 03 bd 41 cc 4a bc bd 4c 86 bc 6f 47 38 3b
       -0.032167286 -0.0123777995 -0.016394014 0.002811875
000220 64 11 26 3c 62 d6 03 3d 49 13 b9 39 74 ca ea bc
       0.010135982 0.032186873 0.00035300318 -0.02866099
000230 fc e1 17 3b 15 0b bc bc 94 25 fc 3c 54 e6 c7 3c
       0.0023175469 -0.022954503 0.030779637 0.024401821
000240 9d 0a d9 bb 19 60 d8 bc 0b 83 4d 3c 71 d8 e4 bc
       -0.0066235797 -0.02641301 0.01254345 -0.027935239
000250 18 52 06 3d 42 1e 0e bd e6 69 4f 3c 08 dd 87 bc
       0.032793134 -0.034696825 0.0126595255 -0.016584888
000260 28 b9 02 3c 11 0d 34 bc f3 20 9e 3c a4 34 af bc
       0.007978715 -0.010989443 0.01930282 -0.021387406
000270 85 a6 c9 3b cc 63 cc 3c ac 1f d7 bc 62 59 a2 bc
       0.006153884 0.02494993 -0.02626022 -0.019818012
000280 5b 6f d8 3c 37 f0 49 3c 04 3a 1f 3c 75 9a e6 3c
       0.026420286 0.012325338 0.009718422 0.028149823
000290 56 25 38 bc bb 77 d1 bb 2b 1a 0d 3d 64 1f 5a bc
       -0.01123937 -0.006392447 0.034448784 -0.013313148
0002a0 23 e4 86 3c 58 38 9b bc 1c 35 09 3d 16 ab 65 3b
       0.016466206 -0.018947765 0.033497915 0.0035044602
0002b0 a7 83 9b bb 98 07 88 3b bf 7a ed bc ae 40 b1 3c
       -0.004745919 0.004151296 -0.028989194 0.021637287
0002c0 86 52 69 3c 13 5b 25 3b 80 a4 8f 3c 78 9a 7a bc
       0.0142408665 0.0025231286 0.017534494 -0.015295617
0002d0 a2 8d 5f 3c 44 11 cd bb 63 c4 0f ba ec 29 72 3c
       0.013644608 -0.0062581617 -0.0005484281 0.014780503
0002e0 05 03 c2 3c f6 35 0d bd ce b8 30 bc ff 7a a2 3c
       0.02368308 -0.03447529 -0.010786248 0.01983404
0002f0 0d 30 a9 3c 3c 05 00 3d 08 3d d6 bb ad 3e 15 bc
       0.020652795 0.031254992 -0.006538037 -0.009109181
000300 a0 4b 0c bc 8b 45 4f bb 1c 9e 82 3b ca ec 0c bd
       -0.008562952 -0.0031627144 0.0039861333 -0.034405507
000310 e4 69 41 bc a9 50 e0 3c 92 51 69 3c c4 11 15 bc
       -0.011805031 0.027382212 0.014240639 -0.009098474
000320 e9 e5 d7 3b 7c 18 c8 ba 03 9a 96 3c 2f b8 df bc
       0.0065886867 -0.0015266086 0.018383985 -0.027309505
000330 31 cc ec bc 22 d6 c2 3c eb 5b ee 3c ef 1e 9a 3b
       -0.02890596 0.023783747 0.029096564 0.0047033946
000340 87 91 0b 3d 96 32 d0 ba 69 65 8c bc 99 c4 e6 bb
       0.034074333 -0.0015884216 -0.0171382 -0.0070424792
000350 ce a0 e5 3c a6 45 60 bc 01 9c be bc 2c 19 31 3c
       0.02803078 -0.0136884805 -0.023267748 0.010809224
000360 a5 09 98 bc 32 81 b6 bc e6 43 20 3d 99 b4 fa 3c
       -0.018559286 -0.022278402 0.039127253 0.030603694
000370 fa 7b e6 3c 14 42 b1 3c c5 50 22 3d 10 ea ed bc
       0.028135289 0.021637954 0.03962781 -0.029042274
000380 28 2b 50 3b 64 98 c9 3c c6 cf 29 3d 8f fc 1f 3d
       0.0031764004 0.024608798 0.041457914 0.039059218
000390 39 80 d2 3c 02 7d 86 3c 95 7d c2 b9 b6 25 ac 3c
       0.025695907 0.01641703 -0.0003709613 0.021014076
0003a0 4d 2c ee 3c 69 25 b1 ba d9 84 b3 bc bd 02 2f bc
       0.029073859 -0.0013515177 -0.021913933 -0.010681805
0003b0 82 4e 88 bc 92 db 13 3d f7 05 ce 3b 34 b9 2a 3c
       -0.016638998 0.03609807 0.006287332 0.010420132
0003c0 cd a8 9a 3c f7 6a ad bb 56 14 04 bb 06 fc c0 bb
       0.018879319 -0.005292292 -0.0020153723 -0.0058894185
0003d0 e3 16 8c bc a7 80 9e 3c d1 23 b7 3b 74 e3 a2 ba
       -0.017100757 0.019348456 0.0055889864 -0.0012427405
0003e0 ba ff af bc a5 ef 89 bc 80 93 a2 bc e2 5b f3 bb
       -0.021484245 -0.016837904 -0.019845724 -0.007426725
0003f0 91 ec fc 3c b2 b8 00 3d 49 3d ad 3c f1 d0 b4 3c
       0.030874522 0.03142614 0.021147387 0.022072287

column1.10.bias f4 [8]
000000 d2 c8 24 3d 4c b0 d6 bc 84 c4 7e bc 4b b6 a1 3c
       0.04023058 -0.026207112 -0.015549783 0.019740244
000010 89 37 89 bb 5b 3f 29 bc f6 1e e4 3b 0e 53 4a 3b
       -0.0041875285 -0.0103300465 0.0069616986 0.0030872258

column2.0.weight f4 [10, 3, 7, 7]
000000 b2 6d 67 bd 86 8d 11 bd 46 02 97 bc 06 50 30 3d
       -0.056501098 -0.035535358 -0.018433701 0.043045066
000010 cc 32 79 3c 3d a1 7e 3d 73 60 94 bd f4 50 66 3d
       0.015209865 0.062165488 -0.07244959 0.056229547
000020 fe be 55 bd de 1d 7a bd 5c 9c a1 bd 83 1d 8c 3d
       -0.052184097 -0.06106364 -0.07891151 0.068415664
000030 19 fb 95 bd 40 b5 58 bd c9 46 06 3d 0a c5 14 bd
       -0.07323284 -0.05290723 0.03278235 -0.036320724
000040 35 37 80 bd 43 13 8d bd 66 10 33 3d 8e 7d 55 bd
       -0.0626053 -0.068884395 0.04371681 -0.05212169
000050 e7 77 c1 bc b9 ce b1 bd 11 a8 f9 3c 3b ad 2b bd
       -0.023616744 -0.08682007 0.030475648 -0.041913252
000060 a1 f5 66 3d 23 ec 18 3b 18 c1 f9 bb ce c1 ab bd
       0.056386594 0.0023334108 -0.0076218955 -0.08386575
000070 62 ca 08 3b 2e c7 1f bd 56 15 44 bd 5f 52 b7 bd
       0.0020872583 -0.039008312 -0.04787191 -0.08951258
000080 e6 2e 85 3d 75 30 98 bd eb 7f a6 bd e2 c4 59 bd
       0.06503086 -0.074311174 -0.08129867 -0.053166278
000090 ea 82 38 3d ae b9 86 bd 3d d8 83 bc cd 4c 1f bc
       0.045046724 -0.06578384 -0.016094321 -0.009722901
0000a0 82 6d 90 3d bb fa 9a 3c 42 ec 00 bd 63 9b fc bc
       0.07052137 0.018918386 -0.031475313 -0.030835813
0000b0 38 13 7b bd fc 40 5c 3c 1b c3 36 bc a7 0e 20 bc
       -0.061297625 0.013443228 -0.011154915 -0.009769118
0000c0 b1 09 17 bd 78 ab f3 bb a6 96 85 bd 28 46 86 3d
       -0.036874477 -0.007436212 -0.065228745 0.0655635
0000d0 23 08 3c 3d af 83 4e 3d 7d dc 90 3c 02 f8 28 3d
       0.045906197 0.050418552 0.017683262 0.041252144
0000e0 57 a1 81 bd f5 c7 ed 3a f4 cb 32 bd 20 2b 75 3d
       -0.06329601 0.0018141257 -0.043651536 0.05985558
0000f0 fd e2 59 bc 3a 67 db bb c0 bc 2a 3d 2e aa 87 bd
       -0.013298747 -0.006695655 0.041683912 -0.06624256
000100 69 d8 45 bd 2c c1 8f bc 7f 21 a7 bd 1d 5a cb 3c
       -0.048302088 -0.017548166 -0.08160686 0.024823243
000110 a7 ae bd 3c 51 76 f5 3c f9 ac a0 bd 86 6e 88 bd
       0.02315457 0.029963644 -0.07845492 -0.06661706
000120 65 a3 a4 ba 03 c8 da bb 4d 11 c5 3c a6 8d c3 3c
       -0.0012560902 -0.0066766753 0.024056101 0.023871254
000130 b1 35 8c 3d be 20 b5 bd 5e 66 b3 bd 05 10 6e bd
       0.06846178 -0.08844136 -0.08759759 -0.058120746
000140 40 41 c1 3a f3 8b aa bd cb 8e 74 bc 26 c8 6a 3d
       0.0014744177 -0.083274744 -0.014926623 0.057319783
000150 56 e1 43 3d 95 45 23 bb 42 46 7d 3d 07 85 8d 3d
       0.04782232 -0.00249133 0.06183458 0.069101386
000160 82 7f f1 bc 51 2e 76 3d 23 c8 9e bd f2 0c 82 bd
       -0.029479746 0.060102765 -0.07753017 -0.06350125
000170 dd b9 45 3d 4d 77 9a bd ae 15 b3 3b 98 b3 42 3d
       0.048272956 -0.07542286 0.005465231 0.047534555
000180 17 62 e2 bc f6 c3 1e bd d2 1f 76 3c 22 5e 03 bd
       -0.027634664 -0.0387611 0.015022235 -0.032072194
000190 38 08 95 bd f3 51 85 bd e1 17 52 3d bd a3 17 bc
       -0.07276958 -0.06509771 0.051292304 -0.009255347
0001a0 98 c0 aa bd be ee 57 bd b4 9a 05 bd 17 e1 f3 3c
       -0.083375156 -0.052717917 -0.03261824 0.029770417
0001b0 eb c2 9f 3b 75 2b 30 bd 98 1c 8c bc 4a 46 ae bd
       0.004875531 -0.043010194 -0.017103478 -0.085095
0001c0 b1 67 0a bd 28 fa b8 3c 14 1c b3 bd db de 2d bc
       -0.033790294 0.022580221 -0.0874559 -0.010612215
0001d0 ab 82 4a 3d 54 4e 97 bd 32 14 35 bd 0d e1 a8 bd
       0.04944102 -0.07387987 -0.044208713 -0.0824605
0001e0 7c 60 c6 3c f1 bf 20 3c 74 d1 48 bb d1 92 87 bd
       0.02421593 0.009811387 -0.0030642422 -0.066198
0001f0 7e d3 87 3d f7 b1 6a bb 2d f8 a9 bd d6 17 8e 3d
       0.06632136 -0.0035811642 -0.08299289 0.0693814
000200 7f 8d 23 bb 05 14 d7 3c 4f fb 49 bd ce 1a 8c bc
       -0.0024956164 0.026254663 -0.049311932 -0.017102625
000210 49 bf 17 3d 42 7e 80 3c 74 52 aa 3c 87 a0 cc 3c
       0.037047658 0.015685204 0.02079127 0.02497889
000220 42 4d 48 bd 3a 69 37 bd 11 da ba bd c6 6a 00 3d
       -0.048901804 -0.044778086 -0.09123624 0.031351827
000230 60 aa 59 3c 7a de 44 bd b6 24 20 3d 6a 00 80 3d
       0.0132852495 -0.048063733 0.03909751 0.06250079
000240 66 d6 9f bd a5 a7 6f bd 04 7d 7c 3d 14 60 77 bd
       -0.07804565 -0.058509488 0.06164266 -0.06039436
000250 bf 97 40 3d 0e bd 9b 3c 38 f5 33 bd 6c e5 4d bc
       0.047019716 0.019011047 -0.04393503 -0.0125669055
000260 2a 6f eb bb de 88 af bc 45 45 e8 ba 12 6d 7e 3c
       -0.0071848826 -0.021427568 -0.0017720839 0.015528934
000270 8e 37 d5 bd 5b 2d a3 bd 10 bb af bd 07 30 b0 3c
       -0.10410987 -0.07967635 -0.08580601 0.021507276
000280 ae 5a 40 3c b4 8d 05 bd f7 c5 9a 3c 51 a8 b8 bd
       0.01174037 -0.03260584 0.018893225 -0.09016479
000290 ca 95 45 bd 3d 60 8a bd db d8 14 3c 2c f7 98 bc
       -0.048238553 -0.06756637 0.0090849055 -0.018672548
0002a0 51 57 36 3c c6 7c 0a 3d be fa 1d bd 69 2d 40 bd
       0.011129216 0.0338104 -0.038569205 -0.046918306
0002b0 19 d6 30 3d c5 f5 cf bd f2 21 cb bd b1 1d 63 3b
       0.04317293 -0.10154299 -0.09918584 0.0034655149
0002c0 d4 aa ec bc 26 4e 34 bd 2f 16 dd bb 0e 3b ab bd
       -0.028890051 -0.04401984 -0.0067470293 -0.08360873
0002d0 2a 0d 3d bd aa 56 66 bd a3 f1 1e 3d b6 9e 90 bd
       -0.046155132 -0.056234993 0.03880466 -0.07061522
0002e0 2a 0a 5d 3c 39 8f 43 bd 9f 03 4f bd c7 73 7d 3d
       0.013491193 -0.04774401 -0.050540563 0.061877992
0002f0 7d 8c 94 bd 2f 73 83 3c 72 29 e8 3c ba 13 94 bd
       -0.072533585 0.016046135 0.028340075 -0.07230325
000300 fb c3 7c bd e6 98 60 3d 9c 47 e0 3c 33 1b c5 bc
       -0.06171034 0.054833315 0.027377896 -0.024060821
000310 fb 1b a5 bd 82 54 bf bd c5 b9 91 bb f4 f4 c8 3c
       -0.080619775 -0.093422905 -0.0044471943 0.024530865
000320 61 73 8f 3c cb f7 2e bd c3 83 2d bc 6a 7f 96 bd
       0.017511072 -0.042716783 -0.0105904965 -0.07348521
000330 c7 09 d6 3c d2 c9 28 3c 14 5e 56 bd 8b 44 d3 3c
       0.02612771 0.010302024 -0.052335814 0.02578952
000340 0c 2c 7a 3d 2a 65 ba 3c 2a fd bc bd 0d 39 af bd
       0.061077163 0.022753317 -0.09227975 -0.085558034
000350 b3 05 40 bd c2 28 73 bc d0 c2 4f bd cc 73 a6 bd
       -0.046880435 -0.01484126 -0.050722897 -0.08127555
000360 86 fe c2 bd 4a f3 60 bd d0 6a 46 3d ed 10 4b bc
       -0.09521203 -0.05491952 0.048441708 -0.012394172
000370 0b 01 f4 3a 7b f9 60 3d 9d 9a 9a bd 7e 3b 10 bd
       0.0018616033 0.054925423 -0.075490214 -0.035212986
000380 24 c6 bc bd 71 82 b8 bd 28 89 92 bd 91 a5 05 3c
       -0.0921748 -0.09009255 -0.07155067 0.00815715
000390 6f 9d 1f bd 4e 5e 5e bd c4 e5 57 bc f5 a3 61 bd
       -0.0389685 -0.054289155 -0.013177339 -0.055088002
0003a0 8f bd 6c bd 6a 43 1b 3d ef 10 c0 bd 71 f9 7d 3d
       -0.057797965 0.037906088 -0.0937823 0.062005464
0003b0 ad 80 0c bd d7 69 d5 3c 5c 87 de 3c af e3 63 3d
       -0.034302402 0.026051445 0.027164154 0.055637058
0003c0 12 51 99 bd 50 36 c0 bd b0 cf 02 bd f5 d7 56 bd
       -0.07486166 -0.09385359 -0.031936347 -0.052452046
0003d0 46 cb 60 bd 4b 49 8d bb 7c 26 94 bd 00 4f 59 3c
       -0.054881357 -0.0043117157 -0.07233903 0.013263464
0003e0 3d 49 a1 bd 69 a9 a9 bc a7 2f f5 bc d6 a0 24 bd
       -0.07875297 -0.020710664 -0.029929949 -0.040192448
0003f0 1a 40 af 3c 30 4e 68 3d 00 6a c7 bc 9d ba bd bb
       0.02139287 0.05671519 -0.024342537 -0.0057900683

column2.0.bias f4 [10]
000000 34 1f 6e 3d 55 ed 65 bc 59 e6 2d bd 7c 9e 5b 3d
       0.058135226 -0.014033635 -0.042456005 0.05361794
000010 1f 22 31 3c 6e 41 84 bc f8 b0 3c 3d 31 69 a7 bd
       0.010811358 -0.01614448 0.046067208 -0.081743605
000020 35 2b 09 3c 07 a3 b3 3d
       0.008372118 0.087713294
